backend/model/point_recognizer/test_models/test_point_recognizer.tflite (tflite, 6616 bytes, 6 tensors)

sequential/dense/BiasAdd/ReadVariableOp f4 [20]
0	0x3e37330d	0.17890568
1	0x3e5ddf92	0.21667317
2	0x3cdd9e3d	0.027052993
3	0xbe0d47c5	-0.13796909
4	0xbde951be	-0.11392544
5	0xbd60b987	-0.054864433
6	0xbdbf42ba	-0.09338899
7	0x3d28f874	0.04125257
8	0xbd2c9229	-0.042131577
9	0x3e318099	0.17334212
10	0x3d797e04	0.060911193
11	0xbd58e47e	-0.052952282
12	0x3dce4c6a	0.100731686
13	0xbe17d2b0	-0.14826465
14	0xbdffaaea	-0.12483771
15	0xbdfa8769	-0.12232859
16	0x3d9a5ed4	0.07537618
17	0x3e00504c	0.12530631
18	0x3ca42f64	0.020042129
19	0xbe2a9f24	-0.1666227

sequential/dense_2/BiasAdd/ReadVariableOp f4 [2]
0	0x3dc9dd7b	0.09856697
1	0xbdc9dd80	-0.09856701

sequential/dense_1/BiasAdd/ReadVariableOp f4 [10]
0	0x3e379128	0.17926466
1	0xbe74aead	-0.23894759
2	0xbe6b471f	-0.2297635
3	0x3e32857c	0.17433733
4	0x3e4a29ac	0.19742459
5	0x3e79a8dc	0.24380821
6	0x3e1a05af	0.1504123
7	0x3e1276f2	0.14303187
8	0x3eb41151	0.3516946
9	0x3e67969b	0.22616045

sequential/dense/MatMul f4 [20, 44]
0	0x3e6c26d1	0.23061682
1	0xbd831ce0	-0.06401992
2	0x3e03fbdc	0.12889045
3	0xbd683260	-0.056688666
4	0xbe0ce987	-0.13760959
5	0xbe4f8df2	-0.20268992
6	0xbc35ca71	-0.011095629
7	0xbe9ffa44	-0.31245625
8	0xbe12817c	-0.14307207
9	0xbebc3d36	-0.3676545
10	0xbd4a8794	-0.049445704
11	0xbd70922d	-0.058733154
12	0x3be2de80	0.0069234967
13	0xbe387cd5	-0.1801637
14	0x3e9b4098	0.3032272
15	0xbe3e13f9	-0.18562306
16	0x3e7ec2ca	0.24878994
17	0xbdc3fe2e	-0.09569965
18	0x3e8938c1	0.26801112
19	0xbdcce847	-0.10005241
20	0x3f0f2129	0.55909973
21	0xbe4e992e	-0.20175621
22	0x3f1bcdf2	0.6086112
23	0x3d930b2c	0.07179865
24	0x3f2e1a46	0.6800884
25	0xbe231034	-0.1592415
26	0x3f07b2f4	0.53007436
27	0xbe5a96e1	-0.21346618
28	0x3f458cfa	0.7716824
29	0x3dd68f81	0.1047659
30	0x3e905f5b	0.2819775
31	0xbe442040	-0.19152927
32	0x3f171125	0.59010535
33	0xbe08bad7	-0.13352524
34	0x3e8b00c9	0.27149037
35	0xbef1f43f	-0.47256657
36	0x3e9cd4df	0.30631158
37	0x3e1aa59c	0.15102237
38	0x3ef7f9c0	0.48432732
39	0x3cb27607	0.021784795
40	0x3e460c38	0.19340599
41	0x3e0b9c7e	0.13633916
42	0x3ed2959f	0.41129777
43	0xbe7b54f2	-0.24544123
44	0x3e841d5e	0.25803655
45	0x3e6afa65	0.2294708
46	0x3e8aa385	0.2707788
47	0x3e338e74	0.1753481
48	0x3e40d172	0.18829897
49	0x3f62df28	0.8862176
50	0xbe0a334c	-0.1349613
51	0x3df16103	0.11786082
52	0x3d86789a	0.06565972
53	0x3e16d602	0.14730075
54	0xb9d1c3be	-0.00040009426
55	0x3e8f25db	0.2795857
56	0x3e7c436f	0.24635099
57	0xbddfcf48	-0.10928208
58	0x3e410a97	0.18851696
59	0xbdd16608	-0.10224539
60	0x3de0e039	0.10980267
61	0xbd6d7b1d	-0.057978738
62	0x3d0bfcb1	0.034176532
63	0xbe0701b8	-0.1318425
64	0xbe59d71e	-0.21273467
65	0xbe4ce669	-0.2000977
66	0xbe1e2b17	-0.15446125
67	0xbe045aeb	-0.12925307
68	0xbdb806f1	-0.08985699
69	0x3efbc27c	0.49171817
70	0x3d5a598d	0.05330806
71	0x3f0f2aee	0.5592488
72	0xbcd21fc2	-0.025649909
73	0xbe36fe76	-0.17870507
74	0x3d9ca85e	0.07649301
75	0xbe1e0747	-0.15432464
76	0xbda79c21	-0.08184076
77	0x3ea06a6b	0.3133119
78	0x3e05f80e	0.13082907
79	0x3ee0fee2	0.4394446
80	0xbdd661de	-0.104678854
81	0xbeba9cf7	-0.3644788
82	0x3d2c7102	0.04209996
83	0xbd532ec5	-0.051558275
84	0xbd278dae	-0.0409066
85	0xbe944bfa	-0.28964216
86	0xbd53be04	-0.051694885
87	0xbe0df901	-0.13864519
88	0x3e1085ed	0.14113589
89	0xbe4733cd	-0.19453354
90	0x3e931987	0.28730413
91	0x3e2d901a	0.16949502
92	0xbd32fd08	-0.04369834
93	0x3f091e46	0.5356182
94	0xbda8003d	-0.082031704
95	0xbd84bc0b	-0.06481179
96	0x3e3c9b46	0.18418607
97	0x3e8e5fca	0.27807456
98	0x3e9ff1ad	0.3123907
99	0x3ec80e3f	0.3907337
100	0xb66dbea0	-3.542671e-06
101	0xbe3e75d1	-0.18599631
102	0x3d972eb7	0.07381957
103	0xbcca47a6	-0.024692368
104	0x3d3fb597	0.046804037
105	0xbdcef2a4	-0.10104874
106	0xbe69de6f	-0.22838758
107	0xbe2c91e8	-0.16852534
108	0x3d4bd9a7	0.049768116
109	0xbc9fba7c	-0.019498102
110	0xbe32ed48	-0.17473328
111	0xbddf1904	-0.10893443
112	0x3dd602e0	0.10449767
113	0x3c188b0a	0.009310493
114	0xbc24991e	-0.010046272
115	0x3e4d6f4f	0.20061992
116	0x3e08821b	0.13330881
117	0xbec3f7d0	-0.38275003
118	0xbdeb2b66	-0.11482887
119	0x3d285643	0.04109789
120	0xbdd592ed	-0.104284145
121	0x3e3f697c	0.18692583
122	0x3d4ee19d	0.05050813
123	0x3ed8df33	0.42357787
124	0xbe2753e6	-0.16340598
125	0xbe417d87	-0.18895541
126	0x3d04dd2e	0.032437496
127	0xbeb2cbd8	-0.34921145
128	0xbd3d6578	-0.046239346
129	0xbe75ebae	-0.24015686
130	0x3d506cac	0.050884888
131	0xbe6e635e	-0.23280093
132	0xbbd04ac1	-0.0063565676
133	0xbe0a0d4a	-0.13481632
134	0x3b829e80	0.00398618
135	0x3e8ee623	0.27909955
136	0xbc269f76	-0.010169854
137	0xbeb15687	-0.34636328
138	0x3d31545d	0.043293346
139	0xbec35437	-0.38150188
140	0xbc4b5ddc	-0.012412515
141	0x3d75f13c	0.060044512
142	0x3db7e935	0.089800276
143	0xbdec9cd7	-0.11553352
144	0xbe853014	-0.26013243
145	0xbda2fe95	-0.07958714
146	0xbed792cc	-0.42104185
147	0xbde61653	-0.11234727
148	0xbdf913cc	-0.12161979
149	0x3ddf253b	0.10895773
150	0xbd16bb2e	-0.036799602
151	0x3df9555d	0.12174485
152	0xbf00cb22	-0.50309956
153	0xbd8e689c	-0.069535464
154	0xbea30d2f	-0.31845996
155	0x3e012775	0.12612708
156	0xbeb7aea5	-0.3587543
157	0xbe4bab69	-0.19889607
158	0xbec7fb5c	-0.3905896
159	0xbe2157bb	-0.15756123
160	0xbd175422	-0.03694547
161	0x3e514940	0.20438099
162	0xbd3b985a	-0.04579959
163	0x3dbfc416	0.09363572
164	0xbe15ec16	-0.14640841
165	0xbc92c5af	-0.017916529
166	0xbd70330f	-0.058642443
167	0x3d4b412d	0.049622703
168	0xbd4bdb8c	-0.049769923
169	0x3e9f97b6	0.31170434
170	0xbe48e118	-0.19617116
171	0x3e86a91b	0.26300892
172	0xbebdff81	-0.37108997
173	0x3e193f82	0.14965633
174	0xbecd214d	-0.4006447
175	0x3e261956	0.16220602
176	0xbe23e523	-0.16005377
177	0xbd95b89c	-0.07310602
178	0x3e8a5c6d	0.2702364
179	0x3e77b826	0.24191341
180	0xbcefacc2	-0.029257182
181	0xbe332916	-0.17496142
182	0xbce7a148	-0.028275147
183	0xbd9011d1	-0.07034648
184	0xbe1dcbbf	-0.15409754
185	0xbdab0d31	-0.083521254
186	0xbda806c8	-0.082044184
187	0xbd5e2af6	-0.05424019
188	0x3e3ff7a7	0.18746816
189	0xbe3d3ae8	-0.18479502
190	0x3da6420d	0.08118067
191	0x3cc23811	0.023708375
192	0x3c5af0c9	0.013363072
193	0x3e0ecca7	0.13945256
194	0x3ed5fe94	0.4179579
195	0x3dbe11ef	0.09280764
196	0x3eda0e5c	0.4258908
197	0xbd93d838	-0.07218975
198	0x3c1f8514	0.009736318
199	0xbe181311	-0.14851023
200	0x3e9e433e	0.30910677
201	0xbac0e0f0	-0.0014715474
202	0x3eefa836	0.46808022
203	0xbd4367d7	-0.04770645
204	0x3d51a285	0.05118038
205	0x3e7c48ea	0.2463719
206	0x3f0a668b	0.5406272
207	0x3e46d6f2	0.19417933
208	0x3e72a844	0.23697
209	0xbd58309b	-0.05278073
210	0x3f0757a7	0.5286812
211	0xbee6e297	-0.4509475
212	0x3e891d12	0.2677999
213	0x3d7976ab	0.060904186
214	0x3e431bd7	0.19053589
215	0x3e9293fa	0.28628522
216	0x3e340d11	0.1758311
217	0x3e23bb44	0.15989405
218	0xbaa05dc6	-0.0012234978
219	0x3e421855	0.18954594
220	0x3df4b7cd	0.1194912
221	0x3d1ad19d	0.03779756
222	0xbe3f99d4	-0.18711025
223	0x3dc9499c	0.09828493
224	0xbe259419	-0.16169776
225	0xbd1045cc	-0.035222813
226	0xbf0db9c0	-0.55361557
227	0x3e27475a	0.16335812
228	0xbea36fd4	-0.31921256
229	0x3e14a893	0.14517431
230	0xbeeeb056	-0.4661891
231	0xbe0fae9d	-0.14031453
232	0xbe217944	-0.15768915
233	0x3e3444c9	0.17604364
234	0xbe24b267	-0.1608368
235	0xbd5acf8e	-0.053420596
236	0xbeaa8544	-0.333048
237	0xbdf1b3fa	-0.11801906
238	0xbee24420	-0.441926
239	0x3e83a9e6	0.2571556
240	0xbe988342	-0.29787642
241	0x3e86eabb	0.2635096
242	0xbd7eb8da	-0.062188007
243	0xbdb09257	-0.08621662
244	0xbe31024a	-0.1728603
245	0x3cc49ee5	0.024001548
246	0x3d556572	0.0520987
247	0x3dc88117	0.09790247
248	0x3dd0b550	0.101908326
249	0xbd6c2448	-0.057651788
250	0xbe2597f5	-0.16171248
251	0xbd54374f	-0.05181056
252	0xbe4916de	-0.1963763
253	0x3e438956	0.19095358
254	0xbca7de04	-0.020491607
255	0x3db970ed	0.09054742

sequential/dense_1/MatMul f4 [10, 20]
0	0xbf2f5740	-0.6849251
1	0xbf09ac5c	-0.53778625
2	0xbd51a7e9	-0.051185522
3	0x3f1b28e3	0.60609263
4	0x3e933c56	0.2875697
5	0xbe70676e	-0.23476955
6	0xbe80ef8b	-0.25182757
7	0x3ee67d42	0.4501744
8	0xbda16df8	-0.07882303
9	0x3f0b16c7	0.5433163
10	0xbe5f5a5a	-0.2181181
11	0x3cf3fb8a	0.02978303
12	0xbed4a358	-0.4153087
13	0x3f2c7215	0.67361575
14	0x3f02e940	0.5113716
15	0xbe8623c4	-0.26199162
16	0x3eb00494	0.34378493
17	0xbf6241e7	-0.8838181
18	0xbf072100	-0.5278473
19	0x3f29388d	0.66101915
20	0x3f0f5b93	0.55999106
21	0x3e345811	0.1761172
22	0xbef69b8e	-0.48165554
23	0xbe594458	-0.21217477
24	0x3d0e452a	0.03473393
25	0xbe58f420	-0.21186876
26	0x3f39d1dc	0.72585845
27	0xbebc0a42	-0.36726576
28	0xbc8ee614	-0.017443694
29	0xbf4323cd	-0.762265
30	0xbe36c483	-0.17848401
31	0xbe1cc79d	-0.15310521
32	0xbe460fdc	-0.19341987
33	0x3d407dde	0.046995036
34	0xbe7dfedb	-0.24804251
35	0x3f1c80f8	0.6113429
36	0xbf34b7c9	-0.70592934
37	0x3eddd5f4	0.43327296
38	0xbeeb7d4e	-0.45994037
39	0x3df6604d	0.12030087
40	0x3e447281	0.19184305
41	0xbe17c05b	-0.14819472
42	0xbe985a2c	-0.29756296
43	0xbdac577a	-0.08415122
44	0x3f170877	0.5899729
45	0xbe224c14	-0.15849334
46	0x3cc443e0	0.023958147
47	0xbe8a4fa2	-0.2701388
48	0x3f09e606	0.5386661
49	0xbd807399	-0.062720485
50	0xbea2a11c	-0.31763542
51	0xbeb72b54	-0.35775244
52	0xbe14ee0c	-0.14543933
53	0x3d707bc8	0.058711797
54	0x3e11c463	0.14235072
55	0x3f092efe	0.5358733
56	0xbeb80207	-0.35939047
57	0x3ecfe00e	0.40600628
58	0x3e2428a3	0.16031127
59	0x3e402ffd	0.18768306
60	0x3ec3b5e4	0.3822471
61	0x3e251d62	0.1612449
62	0xbd3ee8ec	-0.04660885
63	0xbef0af87	-0.47008917
64	0xbf0d6cbf	-0.5524406
65	0xbd8167b7	-0.0631861
66	0xbdd5b983	-0.10435774
67	0x3e9d85d5	0.30766168
68	0xbdb06be4	-0.086143285
69	0x3c8d1a76	0.017224532
70	0x3e83bda1	0.25730613
71	0x3e023f70	0.12719512
72	0x3eac36a3	0.33635435
73	0xbecf579e	-0.40496534
74	0x3d36e6a2	0.044653542
75	0xbda00c2c	-0.078148216
76	0x3ee373d3	0.44424304
77	0x3eb66edf	0.35631463
78	0x3eafd8a4	0.3434497
79	0xbe420561	-0.18947364
80	0xbf2b069b	-0.66806954
81	0x3d27b6bd	0.040945757
82	0x3d77d766	0.060508154
83	0x3f0747a1	0.5284367
84	0x3f3fba2a	0.7489344
85	0xbe1072e1	-0.14106323
86	0x3ed9c8e7	0.4253609
87	0x3e6e4916	0.23270068
88	0x3f3803c6	0.7188076
89	0x3e4538eb	0.19259994
90	0xbeb057cc	-0.34441984
91	0x3e11b937	0.1423081
92	0xbe48c4d0	-0.19606328
93	0x3edd7ab0	0.43257666
94	0x3eafda1d	0.34346095
95	0xbe620e7f	-0.22075842
96	0x3f13b97b	0.57704896
97	0xbede914e	-0.43470234
98	0xbec5c84d	-0.3862938
99	0x3ed6f1de	0.41981405
100	0x3db5fe24	0.08886364
101	0x3f1ac4c9	0.6045652
102	0xbdf95c68	-0.12175828
103	0xbed20ff4	-0.41027796
104	0xbeb0a666	-0.34501952
105	0x3ed281fa	0.4111479
106	0xbe92d913	-0.2868124
107	0x3eeaa9b3	0.45832595
108	0xbe4448f9	-0.19168462
109	0x3dc93c5a	0.09825964
110	0x3e7006ee	0.23440143
111	0xbea0c6c6	-0.31401652
112	0x3c24aac5	0.01005048
113	0xbe85cd73	-0.26133308
114	0x3de80ae9	0.11330206
115	0xbe2fd581	-0.17171289
116	0x3e4c5ee9	0.1995808
117	0x3e81ce30	0.2535262
118	0x3ec681e9	0.3877099
119	0xbd424d67	-0.047437098
120	0x3c38d457	0.0112810945
121	0x3ea713e2	0.32632357
122	0x3f0a7c9f	0.54096407
123	0x3de311bf	0.11087369
124	0xbe54ea07	-0.207924
125	0x3f0645d5	0.52450305
126	0xbeeb29de	-0.4593038
127	0x3eb269eb	0.34846434
128	0xbf0e9741	-0.55699545
129	0xbd8475e9	-0.06467802
130	0x3f0b0885	0.54309875
131	0x3eac6ff3	0.3367916
132	0x3d9ec3fc	0.07752225
133	0xbe96ccff	-0.29453275
134	0xbf00d5d0	-0.5032625
135	0x3e965e9b	0.29369053
136	0x3eb14069	0.34619454
137	0xbc0aeaec	-0.008478861
138	0x3cc59daf	0.024123041
139	0xbe37a5c2	-0.17934325
140	0x3d8960d3	0.06707921
141	0xbd5fd3bf	-0.054645296
142	0x3e990b28	0.29891324
143	0xbec64c60	-0.38730145
144	0x3d8809ca	0.06642492
145	0x3ed5b072	0.4173618
146	0xbe82e860	-0.25567913
147	0x3e8515ca	0.25993186
148	0xbec78990	-0.3897214
149	0x3e61c722	0.2204862
150	0x3f19ee55	0.6012929
151	0xbe8985f9	-0.26860026
152	0x3ee853b6	0.45376366
153	0xbf0ecee5	-0.55784446
154	0xbec949f5	-0.39314237
155	0x3e34cd54	0.17656451
156	0x3ea632e3	0.32460698
157	0xbbe2807d	-0.0069122897
158	0x3f1700aa	0.5898539
159	0xbdf94b91	-0.12172616
160	0x3c3cf222	0.011532338
161	0x3f248555	0.6426595
162	0x3e91a664	0.28447258
163	0xbe0df75f	-0.13863896
164	0xbf0436d8	-0.51646185
165	0x3ea4948d	0.32144585
166	0xbe9b54a0	-0.30338
167	0xbe046c0c	-0.12931842
168	0xbf0ed951	-0.5580035
169	0x3ef7a9d2	0.4837175
170	0x3e556a85	0.20841415
171	0x3e71cfe3	0.23614459
172	0x3f189b87	0.59612316
173	0xbe785947	-0.24252807
174	0xbead24e6	-0.33817214
175	0xbdd35edb	-0.103208266
176	0x3d441094	0.047867373
177	0x3c285739	0.010274702
178	0x3e20236f	0.15638517
179	0xbea0bf86	-0.3139612
180	0x3ea935d0	0.33048868
181	0x3f2bca9b	0.67106026
182	0x3eda68ab	0.4265798
183	0xbf0fd9ac	-0.56191516
184	0xbf17f56e	-0.5935887
185	0xbd15db87	-0.03658631
186	0xbf01b40f	-0.5066537
187	0x3ed6bd30	0.41941214
188	0x3dc9011d	0.098146655
189	0x3dd671f6	0.10470955
190	0x3e6395d3	0.22225122
191	0xbeb58642	-0.35453993
192	0x3e9ffee2	0.31249148
193	0xbf14424e	-0.5791367
194	0xbeebd7d3	-0.46063098
195	0xbd5bde07	-0.05367854
196	0xbdd96d38	-0.10616535
197	0x3ec1417b	0.3774527
198	0x3e9b201c	0.30297935
199	0x3e1c5826	0.15268001

sequential/dense_2/MatMul f4 [2, 10]
0	0xbf0753b7	-0.52862114
1	0xbf8a7522	-1.0816996
2	0xbf47b08e	-0.78003776
3	0xbe807089	-0.25085858
4	0xbedf4398	-0.43606257
5	0xbe1154f9	-0.14192571
6	0x3e86e20b	0.26344332
7	0x3f358965	0.7091277
8	0x3f4a9f06	0.791489
9	0x3eead5cf	0.45866248
10	0x3f2e1eb8	0.68015623
11	0x3f1a054c	0.6016433
12	0x3f1abe50	0.60446644
13	0xbf49c1fb	-0.78811616
14	0x3f20def6	0.6284021
15	0xbf2b3a4b	-0.66885823
16	0xbf19ed69	-0.60127884
17	0xbe27681a	-0.16348305
18	0x3cfd6933	0.030933952
19	0xbf311bc7	-0.6918301
