backend/model/point_recognizer/test_models/test_point_recognizer.tflite (tflite, 6544 bytes, 6 tensors)

sequential/dense/BiasAdd/ReadVariableOp f4 [20]
-0.3995615 -0.462943 -0.6552053 -0.21318604 -0.62442124 -0.30817246 0.122176245 -0.35549277
-0.37783155 -0.3727341 -0.6735563 -0.51103586 -0.6957217 -0.65704155 -0.6877959 -0.39607653
-0.4186226 -0.2268061 -0.44436443 -0.8267622
00000000: 5393 ccbe dd06 edbe 89bb 27bf 714d 5abe
00000010: 12da 1fbf c8c8 9dbe 8a37 fa3d 2603 b6be
00000020: 2373 c1be 01d7 bebe 306e 2cbf 3fd3 02bf
00000030: d11a 32bf e033 28bf 6413 30bf 8bca cabe
00000040: b455 d6be dc3f 68be bc83 e3be b0a6 53bf

sequential/dense_2/BiasAdd/ReadVariableOp f4 [4]
0.19114533 0.18712832 0.10831739 -0.6351777
00000000: 9abb 433e 919e 3f3e 82d5 dd3d 019b 22bf

sequential/dense_1/BiasAdd/ReadVariableOp f4 [10]
-0.09424417 0.9774569 0.8057231 0.7659183 0.46638703 -0.0996222 0.07266777 -0.200761
0.24102983 -0.24250482
00000000: 1603 c1bd 9e3a 7a3f de43 4e3f 3913 443f
00000010: 48ca ee3e b906 ccbd d7d2 943d 4b94 4dbe
00000020: 86d0 763e 2f53 78be

sequential/dense/MatMul f4 [20, 42]
-0.18007928 0.178722 -0.23882285 -0.5800887 -0.20285714 -0.14506657 -0.038329944 -0.4088492
0.14660926 -0.52855796 -0.31615323 -0.28271905 -0.27357337 -0.040617466 -0.15048613 0.28273457
0.067494206 0.29926103 -0.30534354 0.029264942 -0.29712173 -0.19630642 -0.28471434 -0.064132325
-0.32820112 -0.34368184 -0.4811406 0.09688673 -0.40357885 -0.107838206 0.2796982 0.029382328
-0.037677918 -0.19025707 -0.21824497 0.14810032 -0.18353377 0.11467883 -0.13327928 0.43092012
-0.25725427 0.49926102 -0.3050706 -0.090078175 0.2675741 0.37740043 0.19630934 0.018386593
0.13600473 -0.16258965 0.14065754 -0.44016725 -0.30288753 -0.0788164 -0.081249475 -0.019946922
-0.011778352 0.074512005 -0.05668369 0.046980977 -0.39517048 -0.10754277 0.07357464 0.072251156
0.010632711 0.14029993 -0.050097264 0.09215336 -0.28414807 -0.17741966 0.15498763 0.014491345
0.05293417 0.14409764 -0.02013636 0.122362405 -0.0019415999 -1.2016522 0.24563846 -0.082820624
0.15316094 0.035481524 0.026259216 0.053705446 -0.3024483 -0.29311997 0.20459464 -0.35963014
0.20841387 -0.38438618 0.0028894355 -0.28720894 -0.065027915 -0.23514073 0.2147563 -0.09671359
0.11837202 -0.08983003 -0.07979448 0.12526086 -0.21432254 0.1553585 0.6258146 -0.3223385
0.43259722 -0.14706494 0.0015270198 0.042855266 -0.2022684 -0.02354984 0.4704561 -0.34868357
0.31532797 -0.109116614 -0.131421 0.037578423 -0.3221006 0.052891787 0.42785665 -0.13106763
0.2564953 0.020874254 0.046786435 0.20981751 -0.15819766 0.22904241 -0.17382109 0.1181483
0.8574007 0.065933205 0.4161817 0.3175874 0.3288493 0.016775105 0.27550903 -0.14484484
0.39940822 0.2341074 0.38274536 0.21076657 0.17959562 0.21406537 0.058156624 0.2381912
0.063051246 0.16576923 0.49884307 0.10459956 0.53783166 -0.06314457 0.45977443 -0.12390666
0.115602605 0.17589551 0.35864606 0.06400241 0.17737667 0.13486986 0.15042065 -0.018379338
-0.034272168 0.18924688 0.13800655 0.31065288 0.05005117 0.3210929 -0.13987894 0.29305658
0.2988103 0.09289613 -0.29421726 -0.045769636 -0.15389338 0.005358759 -0.19799037 0.049446672
-0.2373525 0.049774904 0.034847565 0.0335166 0.041432906 0.045142476 0.09908688 0.037875284
0.15975243 -0.095468916 0.074256696 0.07812063 0.012112812 0.049838766 0.17131257 -0.10407405
0.369168 0.1901581 0.0027949284 0.14850146 -0.094204515 0.054577462 0.109815046 -0.21330503
0.44745064 -0.79818815 -0.034215044 0.20687938 -0.16409755 0.15331972 0.028004948 0.068526894
0.18672256 -0.24266264 -0.18822573 -0.010907739 0.32439116 0.4099627 0.22257714 0.054336894
0.22308739 0.006141476 0.29582828 -0.14706966 -0.12159833 0.085682355 0.09684938 0.039798252
-0.04095993 -0.003884747 -0.121718094 0.0057429965 -0.119807035 0.026524758 -0.030946612 -0.09436032
-0.109237775 -0.2437226 -0.30638143 0.30994743 0.00059881003 -0.08915613 -0.03052016 0.036240663
-0.4061102 -0.008705014 -0.34022254 0.5247878 0.18345934 -0.049762055 0.22166288 0.038558304
-0.0360001 0.21566248 -0.48455063 0.26671094 0.2672276 -0.08406481 -0.11367508 0.061462585
00000000: b466 38be e602 373e fa8d 74be b180 14bf
00000010: c8b9 4fbe 558c 14be dcff 1cbd af54 d1be
00000020: bd20 163e 934f 07bf d6de a1be 8dc0 90be
00000030: cf11 8cbe 805e 26bd 0919 1abe 96c2 903e
00000040: 673a 8a3d be38 993e fd55 9cbe 08bd ef3c
00000050: 5720 98be 8d04 49be 14c6 91be cf57 83bd
00000060: fa09 a8be 11f7 afbe 1058 f6be 8d6c c63d
00000070: e3a1 cebe 47da dcbd 9a34 8f3e 35b3 f03c
00000080: 2954 1abd c0d2 42be 9c7b 5fbe 9ca7 173e
00000090: 47f0 3bbe bcdc ea3d 5d7a 08be 90a1 dc3e
000000a0: d5b6 83be 249f ff3e 3732 9cbe e87a b8bd
000000b0: 79ff 883e a13a c13e 5105 493e 7b9f 963c
000000c0: d344 0b3e e77d 26be 8808 103e 9a5d e1be
000000d0: 1314 9bbe 7e6a a1bd 2066 a6bd ba67 a3bc
000000e0: fdf9 40bc c099 983d 282d 68bd 206f 403d
000000f0: c953 cabe 623f dcbd 4dae 963d 6af8 933d
00000100: d334 2e3c c9aa 0f3e ca32 4dbd e7ba bc3d
00000110: db7b 91be 80ad 35be 14b5 1e3e 1b6d 6d3c
00000120: 80d1 583d 558e 133e 02f5 a4bc 2499 fa3d
00000130: 487d feba bdcf 99bf a688 7b3e dc9d a9bd
00000140: 39d6 1c3e 1355 113d 911d d73c 3efa 5b3d
00000150: 81da 9abe d213 96be 4281 513e 7121 b8be
00000160: 726a 553e 44ce c4be af5c 3d3b 0d0d 93be
00000170: 5b2d 85bd bbc8 70be 13e9 5b3e c611 c6bd
00000180: 086d f23d cff8 b7bd 4a6b a3bd 6244 003e
00000190: 5e77 5bbe 4c16 1f3e 6335 203f 8d09 a5be
000001a0: 627d dd3e 3198 16be 4826 c83a 0189 2f3d
000001b0: 731f 4fbe 98eb c0bc 9fdf f03e a786 b2be
000001c0: ab72 a13e 8878 dfbd 3a93 06be d5eb 193d
000001d0: 5fea a4be 0fa5 583d 0710 db3e 9836 06be
000001e0: 5a53 833e 7c00 ab3c 22a3 3f3d 67da 563e
000001f0: 91fe 21be 188a 6a3e 28fe 31be bcf7 f13d
00000200: 9d7e 5b3f fd07 873d c515 d53e d19a a23e
00000210: ef5e a83e f26b 893c 850f 8d3e 3552 14be
00000220: 3c7f cc3e dab9 6f3e 33f7 c33e 31d3 573e
00000230: eae7 373e f433 5b3e a435 6e3d 65e8 733e
00000240: 0321 813d 69bf 293e 5c68 ff3e 4b38 d63d
00000250: 56af 093f f151 81bd 8e67 eb3e c6c2 fdbd
00000260: 0fc1 ec3d f41d 343e 75a0 b73e b213 833d
00000270: 3ba2 353e 531b 0a3e df07 1a3e 4490 96bc
00000280: f960 0cbd efc9 413e 9751 0d3e e50d 9f3e
00000290: 7502 4d3d 4a66 a43e 6d3c 0fbe 830b 963e
000002a0: aafd 983e 5440 be3d a5a3 96be f178 3bbd
000002b0: 3a96 1dbe 8798 af3b fdbd 4abe 9888 4a3d
000002c0: 890c 73be c5e0 4b3d 52bc 0e3d b448 093d
000002d0: 8db5 293d 51e7 383d 10ee ca3d 1d23 1b3d
000002e0: 2496 233e 3585 c3bd e513 983d b5fd 9f3d
000002f0: d174 463c bc23 4c3d 906c 2f3e c724 d5bd
00000300: 9703 bd3e ceb8 423e 1e2b 373b c410 183e
00000310: 4cee c0bd 9e8c 5f3d b6e6 e03d a26c 5abe
00000320: 4018 e53e 0f56 4cbf 1325 0cbd 30d8 533e
00000330: 3009 28be d8ff 1c3e a26a e53c d457 8c3d
00000340: 3334 3f3e 8e7c 78be 3fbe 40be 60b6 32bc
00000350: 9916 a63e a2e6 d13e 43eb 633e 5d90 5e3d
00000360: 0571 643e 6f3e c93b ce76 973e 6e99 16be
00000370: 8c08 f9bd 3b7a af3d f858 c63d 7e03 233d
00000380: 99c5 27bd 3d97 7ebb 5647 f9bd bf2f bc3b
00000390: 645d f5bd 734a d93c c083 fdbc fc3f c1bd
000003a0: 0eb8 dfbd 6b92 79be 07de 9cbe 6eb1 9e3e
000003b0: 76f9 1c3a 7d97 b6bd 6a05 fabc 1771 143d
000003c0: aded cfbe 7a9f 0ebc a631 aebe 7e58 063f
000003d0: c4dc 3b3e 4cd3 4bbd 98fb 623e 50ef 1d3d
000003e0: d774 13bd a0d6 5c3e 0517 f8be 568e 883e
000003f0: 0ed2 883e 2c2a acbd 7bce e8bd 31c0 7b3d

sequential/dense_1/MatMul f4 [10, 20]
-0.7786907 -0.20970078 0.16494766 -0.07339109 0.8829932 -0.15328063 -0.087579764 0.001449688
-0.7434993 -0.13936856 -0.10732637 0.43315607 0.7591833 -0.65389484 -0.2608819 -0.4018004
0.44546157 -0.33023465 0.0341214 0.97022194 -0.56809425 0.26680338 -0.6128415 0.009292037
-0.00847082 -0.45675516 0.16078717 0.21084405 -0.8351783 0.037777636 -0.21181719 -0.11996224
-0.10252503 -0.39650628 -0.23605207 0.7306456 -0.011143402 0.37596998 -1.025893 -0.21874693
0.095249854 1.0134071 0.50617516 0.37847385 -0.6954143 -0.47831234 -0.07941163 -0.17435756
0.16022761 -0.39544168 0.897099 0.17031613 0.62728345 0.6129115 -0.63042206 -0.37290615
-1.0092554 -0.36031595 0.6004498 -0.6719653 0.006943227 -0.17645963 -0.31955573 0.49215314
0.14622055 0.35399896 -0.46286225 0.45128277 -0.15617563 0.6037716 -0.24557883 0.0076980647
-0.21649876 -0.2806147 0.04219165 0.22225948 -0.1981538 -0.68641466 -0.3091135 -0.06484428
-0.16685063 0.42651993 0.48484498 0.85910916 0.10816368 0.047529455 1.0565354 0.9354322
0.27259696 0.8732609 0.5135719 0.37525606 -0.4457602 0.7258037 -0.18956216 -0.3302574
0.22867526 0.6118519 0.36002678 0.25926733 -0.058783352 -0.09549332 0.10706922 0.044442594
-0.20704854 -0.4517955 0.41127652 -0.6492644 -0.064794846 0.4179141 0.044775464 -0.06579015
0.0017691039 -0.14841637 -0.04285012 -0.45835367 1.1369096 -0.3798494 0.0749565 -0.029660325
0.10007735 -0.33174157 0.59177846 0.20919617 0.61792094 0.6700624 0.18507142 0.5741246
0.56850934 0.38412008 -0.36907765 0.4318907 -0.025843043 -0.40644175 1.1215092 0.19181082
1.7177303 1.1730531 -0.045443676 0.28152832 -0.45572507 -0.24064958 -0.46008247 0.09254052
0.035195343 0.068461165 -0.23349401 -0.28497308 0.018804818 -0.3108932 0.040021267 -0.30472907
0.051719245 -0.011635063 -0.41922042 -0.4166368 -0.05949688 -0.43068907 0.036553852 -0.30502674
0.7903251 -0.4415812 -0.569137 0.33115023 0.11799827 0.64803255 0.71409696 0.41317782
0.019515451 0.8580338 0.55116516 0.54358685 -0.28581303 0.4473891 0.49084115 0.078885354
0.4666179 0.2521425 1.0073097 0.36442685 -0.3643917 0.05696509 -0.20315449 0.19906457
-0.42936793 -0.16400659 -0.13453674 -0.045789663 0.1161473 -0.21166863 -0.13414736 -0.06317513
-0.40210593 -0.3790964 -0.011330001 -0.08729692 -0.37099183 0.020304712 -0.15511775 -0.25276437
00000000: 4658 47bf cdbb 56be 0ae8 283e 114e 96bd
00000010: d80b 623f 99f5 1cbe 055d b3bd 7503 be3a
00000020: f855 3ebf a2b6 0ebe eecd dbbd a2c6 dd3e
00000030: d659 423f a765 27bf 5092 85be c8b8 cdbe
00000040: 8a13 e43e 8414 a9be e2c2 0b3d 7760 783f
00000050: a06e 11bf 749a 883e 2ee3 1cbf a13d 183c
00000060: 32c9 0abc d0db e9be 64a5 243e 81e7 573e
00000070: 3fce 55bf b9bc 1a3d 9be6 58be c3ae f5bd
00000080: a5f8 d1bd df02 cbbe a2b7 71be 970b 3b3f
00000090: d192 36bc 237f c03e 7650 83bf 32ff 5fbe
000000a0: 5b12 c33d 53b7 813f b294 013f 53c7 c13e
000000b0: ac06 32bf 5be5 f4be 91a2 a2bd ca8a 32be
000000c0: b512 243e 5577 cabe 48a8 653f 5a67 2e3e
000000d0: a695 203f c5e7 1c3f 5763 21bf 8eed bebe
000000e0: 482f 81bf 557b b8be 14b7 193f eb05 2cbf
000000f0: 0284 e33b d5b1 34be cf9c a3be 7ffb fb3e
00000100: d7ba 153e 5a3f b53e 48fc ecbe 890e e73e
00000110: 81ec 1fbe c790 1a3f 0479 7bbe 0c40 fc3b
00000120: dab1 5dbe bbac 8fbe 27d1 2c3d fd97 633e
00000130: d4e8 4abe dfb8 2fbf 2044 9ebe 14cd 84bd
00000140: e4da 2abe d260 da3e 9a3d f83e 94ee 5b3f
00000150: eb84 dd3d 3fae 423d 8d3c 873f 7c78 6f3f
00000160: d491 8b3e 078e 5f3f 7379 033f 9021 c03e
00000170: ae3a e4be 45ce 393f 951c 42be 7f17 a9be
00000180: d929 6a3e 53a2 1c3f 6e55 b83e b0be 843e
00000190: d0c6 70bd 0092 c3bd 1b47 db3d 7009 363d
000001a0: 8804 54be bd51 e7be d692 d23e 3136 26bf
000001b0: 29b3 84bd d6f8 d53e 7a66 373d fcbc 86bd
000001c0: 47e1 e73a 76fa 17be 9c83 2fbd 55ad eabe
000001d0: 4186 913f 9f7b c2be cb82 993d 36fa f2bc
000001e0: 5bf5 cc3d 08da a9be cb7e 173f 8537 563e
000001f0: 1130 1e3f 3689 2b3f 5d83 3d3e d4f9 123f
00000200: d489 113f 63ab c43e bff7 bcbe c720 dd3e
00000210: cab4 d3bc 2219 d0be 9d8d 8f3f 0e6a 443e
00000220: 96de db3f 9b26 963f 2623 3abd 7b24 903e
00000230: cc54 e9be d86c 76be ee8f ebbe e285 bd3d
00000240: fe28 103d 5e35 8c3d 0e19 6fbe fee7 91be
00000250: 900c 9a3c 652d 9fbe 57ed 233d 7305 9cbe
00000260: 8fd7 533d fea0 3ebc 0fa4 d6be 6b51 d5be
00000270: 00b3 73bd 4783 dcbe 7eb9 153d 772c 9cbe
00000280: bf52 4a3f ee16 e2be f6b2 11bf 868c a93e
00000290: 14a9 f13d 76e5 253f 0fcf 363f 0b8c d33e
000002a0: dede 9f3c 1aa8 5b3f 2919 0d3f 8228 0b3f
000002b0: 1656 92be 2f10 e53e 884f fb3e a58e a13d
000002c0: 8be8 ee3e d218 813e 86ef 803f 2896 ba3e
000002d0: 8d91 babe 3a54 693d bb07 50be 95d7 4b3e
000002e0: 1dd6 dbbe 58f1 27be 00c4 09be f18d 3bbd
000002f0: a3de ed3d a9bf 58be ed5d 09be f661 81bd
00000300: d4e0 cdbe ec18 c2be 78a1 39bc bac8 b2bd
00000310: a4f2 bdbe 1156 a63c 30d7 1ebe 556a 81be

sequential/dense_2/MatMul f4 [4, 10]
-1.1460953 1.2533678 0.54467934 0.9910907 -1.3711566 -0.21942972 -1.844461 -0.043797728
-1.2457678 0.2617655 0.026262851 0.21764499 -1.0940087 0.85518694 0.2580056 0.74816906
-0.022678416 -0.12303236 0.4575025 -0.5439729 -0.9766256 -0.60339916 1.3275057 -0.258442
0.1968315 -0.34865582 -0.70487225 -0.40706846 0.30400297 -0.033632565 1.0604315 -0.8747952
-0.9024045 -0.3983217 -0.9443367 0.26662096 0.2863151 -0.68947273 0.2661302 -0.4215859
00000000: 40b3 92bf 5b6e a03f 1b70 0b3f 1fb8 7d3f
00000010: 0f82 afbf 2fb2 60be 4c17 ecbf 3f65 33bd
00000020: 5275 9fbf 2106 863e 3125 d73c 54de 5e3e
00000030: 7a08 8cbf 88ed 5a3f 4f19 843e 0288 3f3f
00000040: 16c8 b9bc 64f8 fbbd c53d ea3e cf41 0bbf
00000050: 2304 7abf 5e78 1abf b5eb a93f 8352 84be
00000060: 328e 493e 0483 b2be 8272 34bf 476b d0be
00000070: 47a6 9b3e 4dc2 09bd 38bc 873f 94f2 5fbf
00000080: fb03 67bf d2f0 cbbe 0dc0 71bf 8b82 883e
00000090: e597 923e 4981 30bf 3842 883e 1bda d7be
