backend/model/point_recognizer/test_models/test_point_recognizer.tflite (tflite, 6588 bytes, 6 tensors)

sequential/dense/BiasAdd/ReadVariableOp f4 [20]
0	0x3dfdf29a	0.12399788
1	0xbf0cd7bc	-0.55016685
2	0x3e4900f6	0.19629273
3	0xbd3cf890	-0.046135485
4	0x3e6a6887	0.22891437
5	0xbf422c5e	-0.7584895
6	0xbe687f9f	-0.22704934
7	0xbf1caa9d	-0.61197835
8	0x3eb18055	0.34668222
9	0xbf1220ee	-0.57081497
10	0xbf48b16f	-0.7839574
11	0xbf3e27e3	-0.7427961
12	0x3e9a4cba	0.30136663
13	0x3df04fcd	0.11733971
14	0xbeb7442e	-0.35794204
15	0xbd540d1b	-0.05177031
16	0xbf065a25	-0.524813
17	0xbd241993	-0.040063452
18	0xbf1ccd6f	-0.61250967
19	0xbf1001f4	-0.5625298

sequential/dense_2/BiasAdd/ReadVariableOp f4 [5]
0	0xbc886a8f	-0.016652374
1	0xbf74ec38	-0.9567294
2	0x3d09c700	0.033637047
3	0xbe885fd3	-0.26635608
4	0x3f722cd8	0.94599676

sequential/dense_1/BiasAdd/ReadVariableOp f4 [10]
0	0xbf36f8fb	-0.71473664
1	0x3eaaa9d6	0.333327
2	0x3f079c18	0.52972555
3	0xbe36fde2	-0.17870286
4	0x3ecd07ed	0.4004511
5	0x3f0bc166	0.5459198
6	0x3f80f6f3	1.0075363
7	0xbe999436	-0.29995888
8	0x3e2b9bde	0.16758677
9	0x3ee16aa0	0.4402666

sequential/dense/MatMul f4 [20, 42]
0	0xbd5a1490	-0.053242266
1	0xbd303748	-0.04302147
2	0x3f98e4ed	1.1944863
3	0x3b9e9d64	0.00484054
4	0x3fa9b4d7	1.3258313
5	0x3bb8e448	0.0056424476
6	0x3f994a53	1.1975807
7	0x3df8ecfa	0.12154575
8	0x3f658735	0.89659435
9	0x3d80a4aa	0.06281407
10	0x3fd02940	1.6262589
11	0x3d7a5264	0.06111373
12	0x3f4867d8	0.78283453
13	0x3c800d87	0.01563145
14	0x3ee4724c	0.44618452
15	0x3df270f9	0.11837954
16	0x3e967b6b	0.29391035
17	0x3e0d8b36	0.13822636
18	0x3eca3dc9	0.39500263
19	0xbe4d0f40	-0.20025349
20	0x3e40f198	0.1884216
21	0xbd07617f	-0.033051964
22	0x3e10a081	0.14123727
23	0x3e0c5060	0.13702536
24	0x3dff01ac	0.12451491
25	0x3e2ff188	0.1718198
26	0xbd5d49d4	-0.054025486
27	0xbe8be408	-0.27322412
28	0x3dbc73ab	0.092017494
29	0x3cdcafb1	0.026939245
30	0x3db2f5f6	0.087383196
31	0x3e540529	0.20705093
32	0x3c3da066	0.0115738865
33	0x3e507fe1	0.20361282
34	0xbe8ccdeb	-0.27500853
35	0xbefc6b98	-0.49300838
36	0xbdea1f5c	-0.114317626
37	0xbc9bc682	-0.019015554
38	0xbd964f12	-0.073393
39	0x3e0e58e5	0.13901098
40	0xbdb0e08a	-0.086365774
41	0x3e0f2e6c	0.13982552
42	0x3e359c10	0.17735314
43	0x3e8c2ab6	0.27376336
44	0xbc87610d	-0.01652577
45	0xbe9c52b7	-0.30531856
46	0xbd393825	-0.04521956
47	0xbdc418f4	-0.09575072
48	0xbce04a77	-0.027379258
49	0xbc4b8c22	-0.012423547
50	0xbd8906db	-0.06690761
51	0x3a6d4679	0.0009051334
52	0x3cf14428	0.029451445
53	0xbbc092fe	-0.005876898
54	0x3ca5efb4	0.0202559
55	0x3ca095ac	0.01960262
56	0xbc6ab717	-0.014325879
57	0xbbdf9eb1	-0.0068243374
58	0x3ad750b5	0.0016427251
59	0xbb0ad886	-0.0021186187
60	0x3d89ea8c	0.067341894
61	0x3ce3ff5c	0.027831726
62	0xb9bc59bb	-0.0003592501
63	0x3d29b55d	0.041432727
64	0xbcc0ab7c	-0.02351927
65	0x3c29b8ec	0.01035903
66	0xbc900fe2	-0.017585699
67	0x3ae05c14	0.0017117285
68	0x3d63fee4	0.055663005
69	0x3dacb769	0.0843342
70	0xbc6aae4e	-0.014323784
71	0x3d887574	0.066630274
72	0xbbc63ab2	-0.0060494775
73	0x3d829b0e	0.063772306
74	0xbd04232b	-0.0322601
75	0x3c8783b7	0.016542299
76	0x3d1e494f	0.03864413
77	0x3e111c53	0.14170961
78	0xbc4a5dc2	-0.012351455
79	0x3e25784d	0.16159172
80	0xbc309176	-0.010776868
81	0x3e131ebe	0.14367196
82	0xbc14dc08	-0.009085663
83	0xbfafa0b9	-1.3720924
84	0x3de001a8	0.10937816
85	0xba2c1600	-0.00065645576
86	0x3d153127	0.03642383
87	0xbdf5aeea	-0.11996253
88	0xbd3bdd55	-0.045865376
89	0xbea3bfd5	-0.31982294
90	0x3e1559af	0.14584993
91	0xbe80025c	-0.250018
92	0xbd7f4e9f	-0.06233084
93	0xbeb8c1eb	-0.36085448
94	0xbf172811	-0.5904551
95	0xbedc9365	-0.43081203
96	0xbd664315	-0.05621632
97	0xbe44d025	-0.19220026
98	0x3e9e4dd9	0.30918768
99	0xbdb2de4c	-0.08733806
100	0x3ecf87ed	0.4053339
101	0x3c327de3	0.010894272
102	0xbf5302cb	-0.82426137
103	0xbe21a602	-0.15785983
104	0x3f1920d7	0.59815735
105	0xbe2afac0	-0.16697216
106	0x3f5a2ac2	0.85221493
107	0x3dea08ea	0.114274815
108	0x3f63fcfb	0.8905789
109	0x3ea614aa	0.3243764
110	0xbf10f6c3	-0.5662653
111	0xbe80d687	-0.2516367
112	0x3ef0b09a	0.47009736
113	0xbe539345	-0.20661648
114	0x3f1fb720	0.623888
115	0x3e412007	0.18859874
116	0x3f992aa6	1.196614
117	0x3ea87d04	0.3290788
118	0x3dc56cc1	0.09639884
119	0x3dadcf25	0.08486775
120	0x3f07d558	0.5305991
121	0x3c052a51	0.008127765
122	0x3f353c7e	0.7079543
123	0x3e11c8c3	0.14236741
124	0x3f67a863	0.9049131
125	0xbd9351bf	-0.07193326
126	0xbe0b894a	-0.1362659
127	0xbc214be0	-0.00984475
128	0x3fd63341	1.6734391
129	0xbdc8f8e5	-0.09813098
130	0x3fd4a800	1.661377
131	0xbe7a4f6c	-0.2444436
132	0x3fd04913	1.62723
133	0xbe922b1c	-0.28548515
134	0x3fc8a3a9	1.5674945
135	0xbe7a0c1f	-0.24418686
136	0x3f82f315	1.0230433
137	0xbe3d4704	-0.18484122
138	0xbc757a32	-0.014982747
139	0xbda1d2cd	-0.07901535
140	0x3d385da6	0.045011185
141	0xbcf1c4d1	-0.029512795
142	0xbd1628f6	-0.036660157
143	0xbd298b9d	-0.04139291
144	0xbe452de7	-0.19255792
145	0xbd813c39	-0.06310315
146	0xbe9d9982	-0.3078118
147	0x3d56916c	0.05238478
148	0xbe85066c	-0.25981462
149	0x3d9e8384	0.07739928
150	0xbeafdada	-0.34346658
151	0x3d523fdb	0.05133043
152	0xbf2aee1a	-0.66769564
153	0x3e8a7114	0.27039397
154	0xbef06722	-0.46953684
155	0x3dabff16	0.08398263
156	0xbef3f738	-0.4764955
157	0x3dd74d4f	0.10512792
158	0xbeb4e421	-0.353303
159	0x3d6fe065	0.05856361
160	0xbf36e30a	-0.71440184
161	0x3e866d1f	0.26255128
162	0xbf082846	-0.5318645
163	0x3e1387e5	0.14407308
164	0xbf05ece7	-0.5231461
165	0x3dba68c9	0.091020174
166	0xbed6a53f	-0.41922948
167	0xbe343646	-0.17598829
168	0xbbf1ca00	-0.0073788166
169	0x3e715c20	0.23570299
170	0xbf9744d8	-1.1817884
171	0xba93722b	-0.0011249235
172	0xbf80b99f	-1.0056647
173	0x3ddf5e6d	0.10906682
174	0xbf1f674e	-0.62267005
175	0x3d8367f5	0.064163126
176	0xbf2f7dc2	-0.68551266
177	0x3d1446c8	0.036200315
178	0xbf3dfbf5	-0.7421258
179	0x3df3d093	0.11905017
180	0xbe63e57d	-0.22255512
181	0xbbb52296	-0.0055278046
182	0xbda0155f	-0.07816576
183	0x3d71ac5e	0.059002273
184	0x394e3817	0.00019666586
185	0x3df6bd95	0.12047879
186	0xbe13987e	-0.1441364
187	0x3c064c25	0.008196865
188	0x3df265b3	0.11835804
189	0x3ce942b7	0.028474195
190	0x3dc66c22	0.096885934
191	0x3dedbfe2	0.11608864
192	0x3d61738a	0.055041827
193	0x3e356f87	0.17718326
194	0x3f2fc969	0.686667
195	0x3d35b0d1	0.04435808
196	0x3e99b633	0.3002182
197	0x3d928788	0.07154757
198	0x3e1e825a	0.15479413
199	0x3e2a00fb	0.16601937
200	0x3dc6f082	0.09713842
201	0x3e434600	0.19069672
202	0x3f4feba9	0.81218964
203	0xbe9d28c2	-0.30695158
204	0x3ea5be62	0.32371813
205	0xbe0a2a36	-0.13492665
206	0x3e80a86a	0.2512849
207	0x3dcfc45d	0.10144875
208	0x3e65fdde	0.22460124
209	0x3dd44585	0.10364822
210	0xbe930b17	-0.28719398
211	0xbe221cf3	-0.15831356
212	0xbf183622	-0.594576
213	0xbf678e13	-0.90451163
214	0xbcc529cb	-0.02406778
215	0xbef04498	-0.46927333
216	0x3ecaea89	0.3963206
217	0xbf042121	-0.5161305
218	0x3f07ef46	0.5309948
219	0xbeae0a11	-0.33992055
220	0x3ea38c05	0.31942764
221	0xbf1348ea	-0.57533133
222	0xbec33e9a	-0.381337
223	0xbe6d2808	-0.23159802
224	0xbe503006	-0.2033082
225	0x3cf539b8	0.029934749
226	0xbe933400	-0.2875061
227	0x3e1137e7	0.14181481
228	0x3f17e044	0.5932658
229	0xbeb93c56	-0.36178845
230	0x3c6f8a06	0.01462031
231	0xbe2c1206	-0.1680375
232	0xbeb2887b	-0.3486975
233	0xbd734d6d	-0.05940001
234	0xbebff147	-0.37488768
235	0x3d150fb3	0.036391925
236	0x3f263079	0.64917713
237	0x3d413d29	0.047177467
238	0x3cc881c0	0.024475932
239	0x3d2c18d2	0.042015858
240	0xbe7454cc	-0.23860472
241	0x3dd4fb7e	0.10399531
242	0xbe9aaddc	-0.3021077
243	0x3e3a82ed	0.18214007
244	0x3ee4c090	0.44678164
245	0x3ed46ae6	0.41487807
246	0x3d9697bb	0.07353159
247	0x3ea8f24e	0.32997364
248	0xbe061689	-0.13094534
249	0x3ed9a055	0.42505136
250	0xbe8635a5	-0.26212803
251	0x3e1f483b	0.15554897
252	0xbdfad3f0	-0.12247455
253	0xbe0b42d9	-0.13599719
254	0xbe9ce6be	-0.30644792
255	0xbf46f8b2	-0.7772323

sequential/dense_1/MatMul f4 [10, 20]
0	0xbd54ca50	-0.051950753
1	0x3e3f062a	0.18654695
2	0x3eadcb43	0.3394414
3	0x3f036566	0.51326597
4	0x3d9305ca	0.071788386
5	0x3f1d5550	0.614583
6	0x3f414fee	0.7551259
7	0xbf5fc1d0	-0.8740511
8	0xbe84b2c6	-0.25917643
9	0x3f12aefa	0.57298243
10	0x3f89dede	1.0771139
11	0x3ed30676	0.41215867
12	0x3ea578e7	0.32318804
13	0x3d885d0e	0.06658374
14	0xbe99c722	-0.3003474
15	0xbf066463	-0.5249693
16	0x3de3dce6	0.111261174
17	0xbf2afbb5	-0.66790324
18	0x3e8ffde9	0.28123406
19	0x3e9ffbb9	0.31246737
20	0x3d0ff2e8	0.035143763
21	0x3f876245	1.0576864
22	0x3e4ac03a	0.19799891
23	0x3ca38acb	0.019963643
24	0x3dc5f994	0.09666744
25	0xbeab5dc6	-0.3346998
26	0xbeb0b052	-0.34509522
27	0x3ff91474	1.9459367
28	0x3bf50063	0.0074768527
29	0xbf5ce772	-0.8629066
30	0xbf910722	-1.1330302
31	0xbf53645a	-0.82575
32	0x3e4acc81	0.19804575
33	0x3d3071d7	0.043077316
34	0x3cd8567b	0.026408425
35	0xbe0e0ef2	-0.13872889
36	0x3f2fbbf4	0.6864617
37	0x3e5c5451	0.21516539
38	0xbe2e2dee	-0.17009708
39	0x3f2b8596	0.6700071
40	0x3df8f425	0.12155942
41	0x3e08adf6	0.13347611
42	0xbe50ff73	-0.20409946
43	0x3f1ae345	0.60503036
44	0xbfbec80b	-1.4904798
45	0x3e8076ca	0.2509063
46	0xbf753267	-0.9578003
47	0x3ee7b2f6	0.45253724
48	0xbf58f3e9	-0.8474718
49	0xbf6b3005	-0.91870147
50	0xbec9939a	-0.39370424
51	0xbf172415	-0.5903943
52	0xbe94f573	-0.29093513
53	0x3e51366b	0.20430915
54	0xbf923aee	-1.1424234
55	0xbf093731	-0.5359984
56	0x3edd3daf	0.43211123
57	0xbf814cdb	-1.010158
58	0x3ec1177f	0.3771324
59	0x3c307188	0.010769255
60	0x3ea258e8	0.31708455
61	0xbef5614e	-0.479258
62	0x3e562d16	0.20915636
63	0x3f18598b	0.5951163
64	0x3f578971	0.84194094
65	0xbd239a5c	-0.03994213
66	0x3e5acd54	0.21367389
67	0xbf3d2e85	-0.7389911
68	0x3f4823a7	0.781794
69	0xbe67b2a6	-0.22626743
70	0xbf81377c	-1.0095057
71	0xbf0e87aa	-0.55675757
72	0x3ed6d324	0.41957963
73	0x3e958222	0.29200846
74	0x3e9c4568	0.30521703
75	0x3f025471	0.509101
76	0xbe06b769	-0.13155903
77	0x3f1be5b7	0.6089739
78	0xbe32a737	-0.174466
79	0xbe740430	-0.23829722
80	0x3e80824c	0.2509941
81	0xbf636a03	-0.88833636
82	0x3d61ca95	0.055124838
83	0x3e389436	0.18025288
84	0x3e637654	0.22213107
85	0x3e1e051d	0.15431638
86	0x3ed6b2b5	0.41933218
87	0xbf97f8e5	-1.1872832
88	0x3f30e4ac	0.69098926
89	0x3c8e2f77	0.017356617
90	0xbe923e53	-0.28563175
91	0xbe943f47	-0.28954527
92	0xbd247d62	-0.040158637
93	0x3e6f4e61	0.23369743
94	0xbf69ba72	-0.9130012
95	0x3f508ad9	0.81461865
96	0xbef48be3	-0.47762975
97	0x3e617584	0.22017485
98	0x3e26f13e	0.16302964
99	0xbed7f801	-0.421814
100	0xbf45c5d5	-0.7725499
101	0x3e945c2b	0.2897657
102	0x3e01abff	0.12663268
103	0xbfd5e412	-1.6710227
104	0x3f8df302	1.1089785
105	0x3ef1e68c	0.47246206
106	0x3f063d74	0.5243752
107	0xbe1d42bc	-0.15357488
108	0x3f2b9a89	0.67032677
109	0x3d965534	0.0734047
110	0x3de2141e	0.11038993
111	0x3d82fd27	0.06395941
112	0x3e42f260	0.19037771
113	0xbf0bd21a	-0.54617465
114	0xbedea625	-0.43486133
115	0x3df4c6d1	0.11951984
116	0x3e86d214	0.26332152
117	0x3f2d9245	0.67801315
118	0x3e36b689	0.17843069
119	0x3ea67153	0.32508335
120	0xbf8dbeeb	-1.1073889
121	0x3f2ef505	0.6834262
122	0xbf9ce44c	-1.2257171
123	0x3d43cff5	0.047805745
124	0xbf473d53	-0.7782795
125	0x3f2135a9	0.62972504
126	0x3f061d54	0.523885
127	0xbde6da56	-0.11272113
128	0xbf475a8b	-0.7787253
129	0xbeaed9b3	-0.34150466
130	0x3beaad98	0.0071618073
131	0xbea3c7f1	-0.3198848
132	0xbfb10cbe	-1.3832014
133	0xbf898ac2	-1.074547
134	0x3e342557	0.17592369
135	0xbf1a724f	-0.6033067
136	0x3f38d614	0.7220166
137	0xbf2a9926	-0.66639936
138	0x3f540168	0.82814646
139	0x3eeb80d7	0.45996734
140	0x3e8c2edf	0.2737951
141	0x3e649186	0.22321138
142	0x3ed62d7b	0.41831574
143	0xbe387a56	-0.18015417
144	0x3eacfa9d	0.33784953
145	0xbf8d911a	-1.1059906
146	0x3d1da1c3	0.038484346
147	0x3f5097b5	0.81481487
148	0xbf8c0117	-1.0937833
149	0x3f350a2c	0.70718646
150	0x3f29fd73	0.6640236
151	0x3f712e69	0.9421144
152	0x3f19343d	0.59845334
153	0x3e5aa4c2	0.21351913
154	0xbf4f6723	-0.8101675
155	0xbf120dc2	-0.5705224
156	0xbfa0073e	-1.250221
157	0xbec76bab	-0.38949332
158	0xbe073a65	-0.1320587
159	0xbf578d92	-0.84200394
160	0x3f903aea	1.1267979
161	0x3d2784ba	0.040898062
162	0x3e8c507b	0.27405152
163	0x3e7c14d7	0.24617325
164	0x3c88be3e	0.016692277
165	0x3e848e73	0.2588993
166	0x3ea70e77	0.32628223
167	0xbee94a3d	-0.45564452
168	0x3eb5a6db	0.35478863
169	0x3e40b942	0.1882067
170	0x3de051e5	0.1095312
171	0x3e12638f	0.14295791
172	0x3ec51e80	0.38499832
173	0x3f63a0a9	0.8891702
174	0x3f854632	1.0412047
175	0x3e5cd797	0.21566616
176	0x3edd3dd5	0.43211237
177	0x3e6e59f8	0.23276508
178	0xbdb1cc23	-0.08681514
179	0x3e4703f0	0.19435096
180	0x3e12dd18	0.14342153
181	0xbfbd98d3	-1.4812263
182	0x3e1f2556	0.15541586
183	0x3d90bf4b	0.07067736
184	0x3dbcf6d4	0.09226766
185	0x3f04ee94	0.5192654
186	0x3ec699a0	0.38789082
187	0xbf61eb67	-0.8824982
188	0x3dbf1041	0.09329272
189	0x3ec09778	0.3761556
190	0xbe428104	-0.18994528
191	0xbc6c89af	-0.014437123
192	0x3e4ec7fe	0.20193478
193	0x3dce9c4c	0.10088405
194	0x3f2bef46	0.6716198
195	0x3f18f316	0.5974592
196	0xbf5269e6	-0.8219284
197	0x3f011654	0.50424695
198	0x3efee890	0.49786806
199	0xbf9b7583	-1.2145237

sequential/dense_2/MatMul f4 [5, 10]
0	0xbf3d6155	-0.7397664
1	0x3f63b6f1	0.8895102
2	0xbe5a932e	-0.21345207
3	0x3f5927a0	0.8482609
4	0xbe58c8ed	-0.21170397
5	0x3ec9a29f	0.39381883
6	0xbfe2962e	-1.7702081
7	0xbfa3f9b5	-1.281058
8	0x3f367be5	0.712828
9	0xbf76f3af	-0.9646558
10	0x3ec2c519	0.38041
11	0xbf34c6f3	-0.7061607
12	0x3f3eb96f	0.745017
13	0x3d1282d4	0.0357693
14	0xbe0ddee0	-0.13854551
15	0x3f695b4f	0.9115495
16	0xbe35b02c	-0.17742985
17	0x3f401e97	0.75046676
18	0xbf50118e	-0.81276786
19	0xbf66b4c5	-0.9011958
20	0xbee9caa2	-0.4566241
21	0xbf9a1346	-1.2037132
22	0xbf03bc21	-0.51458937
23	0x3f3429f2	0.70376503
24	0x3f6b4df0	0.919158
25	0x3e9289a8	0.28620648
26	0xbf943958	-1.158
27	0xbf09056f	-0.53523916
28	0x3e48e04f	0.19616817
29	0x3fa2cbf9	1.2718498
30	0x3e1d1632	0.15340498
31	0xbf0b7e38	-0.5448947
32	0xbf3a2557	-0.72713226
33	0xbf0984c2	-0.537182
34	0xbefeb31c	-0.49746025
35	0xbf33e62e	-0.702731
36	0x3f1bf730	0.60924053
37	0x3edd1b72	0.43185002
38	0x3f219df8	0.63131666
39	0xbf0642a4	-0.52445436
40	0xbf852924	-1.040318
41	0x3f05215a	0.52004015
42	0x3eb05aa5	0.34444156
43	0xbf224288	-0.6338277
44	0xbf1599b9	-0.5843769
45	0xbfb088ef	-1.3791789
46	0x3ed77d78	0.42087913
47	0xbf65e572	-0.8980323
48	0xbf84ef2d	-1.0385491
49	0xbecaa5c9	-0.3957961
