backend/model/point_recognizer/test_models/test_point_recognizer.tflite (tflite, 6968 bytes, 6 tensors)

sequential/dense/BiasAdd/ReadVariableOp f4 [20]
-0.122278236 -0.15104738 -0.4824425 -0.25975215 -0.87514466 -1.0816898 -1.3504443 -0.18491429
-0.7657955 -0.72318876 1.2566624 -0.734707 0.3651517 -1.2051448 0.11485421 -0.45758018
-0.05163918 -1.1702486 0.9575081 0.47807688
00000000: 036d fabd 2aac 1abe b402 f7be 3cfe 84be
00000010: 7b09 60bf d074 8abf 5cdb acbf 2c5a 3dbe
00000020: 2d0b 44bf e622 39bf 50da a03f c215 3cbf
00000030: 2af5 ba3e 2f42 9abf af38 eb3d f347 eabe
00000040: 9b83 53bd b5ca 95bf 401f 753f 7ec6 f43e

sequential/dense_2/BiasAdd/ReadVariableOp f4 [10]
-0.06556144 -0.51727647 0.2156569 -0.1319201 -1.2680248 -0.73312706 0.81483173 -0.5420612
1.8733609 -0.47056141
00000000: 1445 86bd 3b6c 04bf 2ad5 5c3e 1016 07be
00000010: a34e a2bf 37ae 3bbf d098 503f 86c4 0abf
00000020: 4aca ef3f 6ded f0be

sequential/dense_1/BiasAdd/ReadVariableOp f4 [10]
-0.76623917 -0.42295524 -1.6150311 2.9307957 0.50066763 -0.9748323 1.2074305 1.2605616
1.3215611 0.26063275
00000000: 4028 44bf 978d d8be 57b9 cebf 2892 3b40
00000010: c12b 003f 9c8e 79bf 158d 9a3f 155a a13f
00000020: ea28 a93f a871 853e

sequential/dense/MatMul f4 [20, 44]
0.034893967 -0.08865975 0.13252363 0.016978294 0.5783222 -1.7010158 0.20927434 -0.9548323
-0.010360853 -0.59043854 -0.20204411 -0.33436975 0.02385892 0.12615299 0.10652302 -0.054966856
0.16178125 0.044192705 0.14936678 0.06307726 -0.16869499 0.6106875 0.0020941212 -0.01836465
0.0550502 0.09348728 0.15303832 0.23156084 -0.35995352 1.1833706 -0.09791124 0.13884377
0.096678 0.13756917 0.09716634 0.26799455 -0.29051605 1.916629 -0.105957076 0.32037646
-0.022167437 0.26140627 0.03206171 0.39669257 -0.15126197 0.0395031 -0.24281509 0.021135181
0.23794155 -0.643125 0.09278155 -0.4739927 -0.06267324 -0.5302298 -0.22849989 -0.40962365
0.5779917 1.1659176 0.41840604 0.4614534 0.09910856 0.28621277 -0.043042503 0.26351568
0.47136953 1.6201081 0.34068945 0.10928349 0.17322816 0.21132007 -0.012473882 0.3354319
0.36091217 1.7483234 0.2772562 -0.09495291 0.14443931 0.08669076 -0.08955606 0.12980898
0.099099584 1.0037502 0.021535946 -0.1865747 0.06836581 -0.08019492 -0.1713951 0.07624354
-0.12062733 0.22900735 0.032544494 0.19753799 -1.9940072 1.0068743 -1.73082 0.38051888
-1.1647853 0.17916697 -0.8780602 0.1199237 -1.2235197 0.042768434 -0.2467582 0.043367956
-0.13261284 -0.009891089 -0.05421051 -0.019074308 -0.26324382 -0.011044453 0.070443526 0.05555425
0.095296375 0.03107927 0.19151092 0.04426474 0.37306303 -0.1589065 0.18253009 0.01711495
0.21079269 0.065709926 0.18355995 0.024107905 0.5576513 -0.20160156 0.5332428 -0.09018511
0.47900283 -0.04354129 0.40119103 -0.06437057 -0.07106203 0.37856027 0.17220443 0.1323958
-2.4150126 0.2374779 -1.9500047 0.014905025 -0.8583227 -0.03897619 -0.3936897 -0.017426718
-1.6356429 0.052485984 -0.4555982 -0.041441232 -0.3014353 -0.03936403 -0.24954921 -0.04867934
-0.043743793 0.0032223633 0.299559 0.0025517088 0.30326158 0.041096497 0.26360893 0.05457544
0.5839106 0.011174402 0.4470547 0.13207065 0.2751005 0.28123507 0.11104994 0.28162277
0.75608236 -0.048643276 0.5290413 0.121368125 0.42203856 0.2715538 0.3057261 0.3024939
0.013834628 0.20869045 0.06285 -0.259175 0.1990378 1.3037281 -0.17387861 0.59903044
-0.034715742 0.4379674 -0.11775089 0.32424304 -0.74305665 0.513175 0.035431284 0.23451985
0.07661357 0.11182864 0.02857084 0.02924162 -0.6367597 0.24302693 -0.040834367 0.20291726
-0.0017152592 0.20814359 0.07368173 0.16487478 -0.32022968 -0.29974565 0.02582584 -0.18218186
0.04579798 -0.14878225 -0.018277816 -0.041023877 -0.071527205 -2.1631064 0.061092086 -1.2420185
0.09083634 -1.2062169 0.047824576 -0.90042156 -0.068189554 0.39519197 -0.23751986 -0.09117125
0.5967958 0.7451447 0.040100735 0.386812 0.015936753 0.27095878 -0.007833369 0.20107605
-0.43268222 0.25939342 0.3206124 0.10588604 0.2948993 0.052891903 0.34807166 0.060756
-0.6177993 0.2031386 0.037880063 0.045841835 0.1491087 -0.017918043 0.1846838 -0.040450267
-0.57761985 0.011406731 -0.026960334 -0.03839093 0.12334076 -0.23928231 0.19094653 -2.1957784
00000000: faec 0e3d 3e93 b5bd 46b4 073e 1016 8b3c
00000010: ec0c 143f e3ba d9bf 034c 563e e46f 74bf
00000020: 91c0 29bc fb26 17bf a7e4 4ebe 8332 abbe
00000030: c873 c33c 402e 013e be28 da3d ed24 61bd
00000040: fca9 253e 6903 353d 9bf3 183e a72e 813d
00000050: 61be 2cbe 0456 1c3f 863d 093b 7671 96bc
00000060: 527c 613d 4276 bf3d 14b6 1c3e 491e 6d3e
00000070: d44b b8be b078 973f b085 c8bd 102d 0e3e
00000080: 1eff c53d efde 0c3e 25ff c63d 9536 893e
00000090: 85be 94be 1954 f53f 0600 d9bd 6208 a43e
000000a0: 7c98 b5bc 0bd7 853e 2453 033d 4a1b cb3e
000000b0: 6be4 1abe 01ce 213d 85a4 78be b023 ad3c
000000c0: f3a6 733e d7a3 24bf 4104 be3d 2caf f2be
000000d0: d45a 80bd 24bd 07bf e0fb 69be 31ba d1be
000000e0: 44f7 133f ca3c 953f 5139 d63e 9f43 ec3e
000000f0: 6ef9 ca3d 7b8a 923e 564d 30bd 87eb 863e
00000100: 5957 f13e b45f cf3f d96e ae3e 06d0 df3d
00000110: b962 313e 4a64 583e 415f 4cbc bbbd ab3e
00000120: 7bc9 b83e 10c9 df3f 86f4 8d3e ac76 c2bd
00000130: e6e7 133e ed8a b13d 2b69 b7bd a5ec 043e
00000140: b9f4 ca3d e37a 803f 276c b03c 700d 3fbe
00000150: 6003 8c3d 3c3d a4bd 3282 2fbe 9325 9c3d
00000160: 760b f7bd e780 6a3e 604d 053d 6647 4a3e
00000170: a13b ffbf 42e1 803f 828b ddbf 5fd3 c23e
00000180: af17 95bf 8c77 373e 8ec8 60bf 8f9a f53d
00000190: 4b9c 9cbf f42d 2f3d 2eae 7cbe 99a2 313d
000001a0: a9cb 07be 3c0e 22bc d70b 5ebd b941 9cbc
000001b0: e5c7 86be cbf3 34bc b244 903d da8c 633d
000001c0: bf2a c33d f499 fe3c 701b 443e f24e 353d
000001d0: 1e02 bf3e 63b8 22be 2be9 3a3e a734 8c3c
000001e0: 0ada 573e ed92 863d 24f7 3b3e f17d c53c
000001f0: 3cc2 0e3f a470 4ebe 9a82 083f f9b2 b8bd
00000200: dc3f f53e 5a58 32bd e968 cd3e b8d4 83bd
00000210: f888 91bd a7d2 c13e 5c56 303e c492 073e
00000220: 918f 1ac0 682d 733e c199 f9bf 3534 743c
00000230: 09bb 5bbf 7fa5 1fbd b291 c9be 7ac2 8ebc
00000240: bf5c d1bf 8bfb 563d 2b44 e9be 48be 29bd
00000250: ba55 9abe 2d3c 21bd d489 7fbe fd63 47bd
00000260: b12c 33bd 492e 533b cc5f 993e 923a 273b
00000270: 1a45 9b3e cd54 283d c0f7 863e 7f8a 5f3d
00000280: 2a7b 153f d714 373c 5be4 e43e 873d 073e
00000290: f9d9 8c3e 0bfe 8f3e 276e e33d dc30 903e
000002a0: 9d8e 413f 2c3e 47bd 406f 073f da8f f83d
000002b0: 7015 d83e 1a09 8b3e 2288 9c3e 7be0 9a3e
000002c0: a3aa 623c f3b2 553e 80b7 803d 96b2 84be
000002d0: 91d0 4b3e 90e0 a63f 3c0d 32be 0f5a 193f
000002e0: 1832 0ebd 433d e03e 6127 f1bd 2f03 a63e
000002f0: f638 3ebf 705f 033f 6520 113d f925 703e
00000300: 93e7 9c3d 6a06 e53d 650d ea3c 1f8c ef3c
00000310: af02 23bf 0ddc 783e f041 27bd 8bc9 4f3e
00000320: 8cd2 e0ba 9823 553e 72e6 963d efd4 283e
00000330: 25f5 a3be 4378 99be b690 d33c e28d 3abe
00000340: aa96 3b3d 605a 18be 5cbb 95bc a708 28bd
00000350: db7c 92bd 5670 0ac0 b23b 7a3d 76fa 9ebf
00000360: 6708 ba3d 5165 9abf b4e3 433d 0782 66bf
00000370: f7a6 8bbd 9a56 ca3e 6838 73be feb7 babd
00000380: 9cc7 183f cec1 3e3f ab40 243d 390c c63e
00000390: cb8d 823c 1cbb 8a3e 8857 00bc e1e6 4d3e
000003a0: 8688 ddbe 37cf 843e 4f27 a43e c8da d83d
000003b0: 0bfd 963e 2ea5 583d 7336 b23e 49db 783d
000003c0: 1828 1ebf 9103 503e 2028 1b3d a6c4 3b3d
000003d0: f3af 183e dcc8 92bc c01d 3d3e 2eaf 25bd
000003e0: e5de 13bf 4ce3 3a3c ebdb dcbc cf3f 1dbd
000003f0: 159a fc3d 6c06 75be 7d87 433e a287 0cc0

sequential/dense_1/MatMul f4 [10, 20]
-0.71718335 -1.2435625 0.8432159 0.7640918 0.6652321 0.11551093 0.043033477 -1.4002908
0.023694893 0.20855506 0.44037873 0.55812925 0.47162545 0.27650034 0.44007167 0.63101244
-0.21933801 0.6598786 0.9555181 0.2265458 -0.407619 0.29992667 0.07150248 0.48078814
0.0443446 0.017320013 1.3500625 0.73034275 1.2116098 0.6286799 -0.02162357 1.2603472
0.071199 1.678755 0.04351055 -0.033713974 -0.6590001 0.044165872 -0.83819073 0.38215575
1.3334626 1.4042488 -0.061400585 0.30442384 0.042711444 0.9735914 -0.07650289 0.75509685
0.43088245 1.317345 0.5533951 0.5688647 0.29668134 -0.60211706 0.2481993 0.042010054
1.1260922 -0.19503888 0.7216682 0.3353635 -0.37669381 -1.3864018 0.11572595 0.4762655
0.54294497 0.71549696 0.008717735 0.13638306 0.1957861 0.5378087 -2.1101282 0.24298607
-2.1750748 0.0474515 0.7938233 0.32864705 -1.1862918 0.4515099 -0.57072455 -1.9802954
0.9912531 0.264509 -0.06875184 0.09804676 0.2416167 -1.0266359 0.4294472 0.07986712
-0.054546922 0.20256203 0.439643 -0.5616788 -0.1168585 0.08777989 -0.056210753 -0.3310823
1.1777626 -1.4980898 0.40193602 -0.031084139 0.5018541 0.76448184 0.80108064 0.8109691
-0.18828282 -0.1493766 -1.0897006 -0.16550927 0.978453 -0.06494458 0.71334827 -0.15056965
0.83540726 0.3448212 1.0843174 1.064687 0.65427417 -0.072296776 0.5092926 0.7943927
0.23297866 -0.26416102 -0.84161013 0.1329416 0.3802778 -0.52050483 -0.27684793 0.220195
0.4821463 0.5525799 0.7730227 0.69452405 0.18178244 0.2550397 0.27251247 -0.11966167
-0.37664586 -1.0127369 0.8123047 0.8200282 -0.5488454 -0.6525562 -1.7781396 -1.8301079
1.1890662 1.0811555 0.5703961 -0.022202292 0.70557535 0.25595346 0.28671756 0.19311973
0.27250287 0.12385188 -1.370055 -1.8412683 -0.74180514 0.6854764 0.12369667 0.19020575
0.15385687 0.48955297 0.0872415 -0.026104407 0.1899976 0.5241393 0.3623693 -0.40730563
0.42797977 -2.4986427 -0.031805675 -0.49239504 0.18056032 -2.2328994 0.6530479 0.29636484
-0.31451946 0.2010668 -0.45659915 0.17298745 0.530478 1.1425515 -0.79518354 -0.3665224
0.020508224 0.42543212 -2.1276042 0.082205154 0.031414174 0.2064185 -0.8996099 0.26503143
0.0872252 -0.86489904 0.2477731 -0.42883104 0.38226944 0.75987715 0.14022976 0.16287336
00000000: 5499 37bf 0e2d 9fbf ffdc 573f 859b 433f
00000010: a74c 2a3f ff90 ec3d df43 303d bb3c b3bf
00000020: cb1b c23c 758f 553e 5279 e13e 8fe1 0e3f
00000030: e478 f13e 7491 8d3e 1351 e13e 088a 213f
00000040: 259a 60be ceed 283f d69c 743f 9ffb 673e
00000050: 70b3 d0be fd8f 993e e46f 923d dd29 f63e
00000060: afa2 353d b3e2 8d3c d9ce ac3f bef7 3a3f
00000070: 0816 9b3f 2af1 203f ea23 b1bc 0f53 a13f
00000080: c8d0 913d 72e1 d63f 1e38 323d aa17 0abd
00000090: 3bb4 28bf 46e7 343d ab93 56bf eba9 c33e
000000a0: e7ae aa3f 6dbe b33f 2e7f 7bbd 71dd 9b3e
000000b0: 32f2 2e3d 493d 793f 8cad 9cbd 074e 413f
000000c0: a09c dc3e c39e a83f 4dab 0d3f 1ea1 113f
000000d0: 9ee6 973e 5824 1abf f527 7e3e bc12 2c3d
000000e0: ca23 903f 46b8 47be 3fbf 383f c4b4 ab3e
000000f0: 03de c0be 9d75 b1bf ba01 ed3d 12d9 f33e
00000100: 71fe 0a3f cf2a 373f d5d4 0e3c 00a8 0b3e
00000110: 277c 483e d5ad 093f 570c 07c0 57d1 783e
00000120: 6d34 0bc0 815c 423d 0138 4b3f 6d44 a83e
00000130: 69d8 97bf 4e2c e73e 011b 12bf 527a fdbf
00000140: c3c2 7d3f b96d 873e c4cd 8cbd bdcc c83d
00000150: 5e6a 773e ce68 83bf 81e0 db3e 5f91 a33d
00000160: 986c 5fbd 6c6c 4f3e e318 e13e 2fca 0fbf
00000170: 8253 efbd f1c5 b33d 3f3d 66bd 9f83 a9be
00000180: edc0 963f 68c1 bfbf 8fca cd3e 2aa4 febc
00000190: 8379 003f 15b5 433f 9f13 4d3f ac9b 4f3f
000001a0: 36cd 40be 2ef6 18be 4f7b 8bbf 437b 29be
000001b0: e57b 7a3f aa01 85bd fe9d 363f ee2e 1abe
000001c0: 40dd 553f 688c b03e eaca 8a3f aa47 883f
000001d0: 837e 273f 5510 94bd 0061 023f 525d 4b3f
000001e0: f591 6e3e 1d40 87be c373 57bf d821 083e
000001f0: c6b3 c23e ce3f 05bf 03bf 8dbe cc7a 613e
00000200: e1db f63e e075 0d3f d1e4 453f 54cc 313f
00000210: 2d25 3a3e 9094 823e c186 8b3e 2d11 f5bd
00000220: bad7 c0be 5da1 81bf 33f3 4f3f 5eed 513f
00000230: 2281 0cbf ec0d 27bf 149a e3bf fa40 eabf
00000240: 5233 983f 4e63 8a3f 7b05 123f 95e1 b5bc
00000250: 96a0 343f 550c 833e a5cc 923e 2ec1 453e
00000260: 7f85 8b3e 0ea6 fd3d f65d afbf aeae ebbf
00000270: f1e6 3dbf 627b 2f3f ae54 fd3d 4cc5 423e
00000280: a88c 1d3e b0a6 fa3e acab b23d e9d8 d5bc
00000290: bb8e 423e fe2d 063f 7888 b93e 5d8a d0be
000002a0: 2a20 db3e c3e9 1fc0 ab46 02bd 341b fcbe
000002b0: cee4 383e d3e7 0ec0 262e 273f 22bd 973e
000002c0: b208 a1be 75e4 4d3e 5dc7 e9be 9f23 313e
000002d0: 68cd 073f 213f 923f 2691 4bbf d3a8 bbbe
000002e0: dd00 a83c 3dd2 d93e ab2a 08c0 2d5b a83d
000002f0: 26ac 003d 5f5f 533e d64c 66bf 33b2 873e
00000300: 20a3 b23d 066a 5dbf 3bb8 7d3e be8f dbbe
00000310: d2b8 c33e 4f87 423f 6498 0f3e 46c8 263e

sequential/dense_2/MatMul f4 [10, 10]
1.303408 -1.809811 -1.5606958 0.42904612 -0.02700055 -0.35310313 0.3876166 -0.15024595
-1.4062194 0.42355713 0.3786709 0.7524831 0.7463801 0.3254379 -1.0307796 -1.1852716
-1.0747414 -0.69253147 0.85532707 -0.74203837 -1.0223403 0.3521592 -0.55953574 0.4112057
-1.0525733 -1.5672408 -0.41680518 0.88455135 -0.65273035 -0.06583124 -0.77884316 0.49927863
-0.14154024 0.061772596 0.17417997 -0.49453366 -0.6003871 0.2536252 -0.122413576 0.7478774
0.7871688 -0.09895937 0.103506714 -1.0873691 -0.28232995 0.29752865 0.31934544 -0.049398582
-0.01719996 0.32266578 0.30263543 0.54041195 0.65910023 -1.5582541 1.1843476 -0.9280154
0.35982114 -0.8664572 1.3931448 0.31144044 -1.1191663 -1.8111143 -1.9717022 0.3644138
-0.4670708 -3.8669755 -1.1946331 0.8371512 0.23520215 -0.7753664 0.49917623 -2.1338053
0.53220385 0.6938118 -0.3542088 -2.2363615 -0.70574915 -0.11230054 0.6974225 -0.8083238
-2.250579 -0.21390954 -2.0679176 1.1619887 -1.4074802 -1.2776746 1.5688128 -1.8974234
-2.0355186 -1.3100102 -0.043989953 -0.31956068 0.67770797 -1.2176003 0.214655 0.7283316
-0.029847236 -0.364429 -0.534963 0.49858657
00000000: 13d6 a63f e3a7 e7bf e1c4 c7bf efab db3e
00000010: 4230 ddbc efc9 b4be af75 c63e 13da 19be
00000020: fffe b3bf 7bdc d83e 27e1 c13e bca2 403f
00000030: c412 3f3f cc9f a63e 96f0 83bf fbb6 97bf
00000040: 2091 89bf be49 31bf b7f6 5a3f 3af6 3dbf
00000050: 0cdc 82bf 364e b43e bc3d 0fbf 8e89 d23e
00000060: b9ba 86bf 599b c8bf 7d67 d5be f571 623f
00000070: 5619 27bf 87d2 86bd 4462 47bf 73a1 ff3e
00000080: edef 10be 4305 7d3d 3c5c 323e 8433 fdbe
00000090: f8b2 19bf 2adb 813e f8b3 fabd e574 3f3f
000000a0: e583 493f 36ab cabd 54fb d33d e92e 8bbf
000000b0: 8d8d 90be ad55 983e 3f81 a33e 2b56 4abd
000000c0: eee6 8cbc 7334 a53e 08f3 9a3e 7058 0a3f
000000d0: cbba 283f df74 c7bf b498 973f 6b92 6dbf
000000e0: 7a3a b83e 24d0 5dbf 9252 b23f 1f75 9f3e
000000f0: d740 8fbf 98d2 e7bf bd60 fcbf 7294 ba3e
00000100: e723 efbe 877c 77c0 bde9 98bf 8b4f 563f
00000110: d5d8 703e 6a7e 46bf 0794 ff3e 4490 08c0
00000120: 833e 083f a69d 313f db5a b5be 8c20 0fc0
00000130: faab 34bf d3fd e5bd 488a 323f 4fee 4ebf
00000140: 7d09 10c0 1a0b 5bbe c358 04c0 0cbc 943f
00000150: 5028 b4bf d78a a3bf dcce c83f c5de f2bf
00000160: f045 02c0 6aae a7bf cf2e 34bd 759d a3be
00000170: 457e 2d3f 54da 9bbf 85ce 5b3e f173 3a3f
00000180: 3182 f4bc 7096 babe 56f3 08bf bd46 ff3e
