backend/model/point_recognizer/point_recognizer.tflite (tflite, 6500 bytes, 6 tensors)

sequential/dense/BiasAdd/ReadVariableOp f4 [20]
0	0xbe5314bb	-0.20613377
1	0xbe9b35d7	-0.30314514
2	0xbf222d16	-0.63350046
3	0xbf06ee3e	-0.5270728
4	0xbe2f0afb	-0.17094032
5	0x3de9a939	0.1140923
6	0xbee872eb	-0.45400175
7	0xbeb743b2	-0.35793835
8	0xbe88b70f	-0.26702163
9	0xbec2a04d	-0.38012925
10	0xbec92d41	-0.39292338
11	0xbf126043	-0.57178134
12	0xbf112464	-0.5669615
13	0x3ecbbe3b	0.39793572
14	0xbf0bafda	-0.54565203
15	0xbeb2b159	-0.3490093
16	0xbea48c17	-0.3213813
17	0x3db44d51	0.088038094
18	0x3d76358c	0.06010966
19	0xbf32f902	-0.69911206

sequential/dense_2/BiasAdd/ReadVariableOp f4 [3]
0	0x3ebc0c9f	0.3672838
1	0xbe9c8115	-0.30567232
2	0xbd3c2741	-0.045935873

sequential/dense_1/BiasAdd/ReadVariableOp f4 [10]
0	0x3e123035	0.14276202
1	0x3d385969	0.045007143
2	0xbcb5d0ea	-0.022194345
3	0x3f2aea82	0.6676408
4	0x3e0b65d4	0.13613063
5	0x3e5349f5	0.20633681
6	0x3e036b41	0.12833883
7	0x3ead12ac	0.33803308
8	0xbd97f884	-0.074204475
9	0x3e04d6b9	0.12972535

sequential/dense/MatMul f4 [20, 42]
0	0xbe90d8b4	-0.2829033
1	0x3e6c8544	0.23097712
2	0xbf0bd64e	-0.5462388
3	0xbe3d12d7	-0.18464218
4	0xbe2caf12	-0.16863659
5	0x3df40307	0.1191464
6	0xbe61a4a8	-0.22035468
7	0xbe30178a	-0.1719648
8	0x3e2404c7	0.16017447
9	0xbe3b0e9d	-0.18267293
10	0xbf180f0b	-0.59397954
11	0xbe027a11	-0.12741877
12	0xbeab07d4	-0.3340441
13	0x3d0b2ffd	0.033981312
14	0x3d80b0eb	0.062837444
15	0x3e59e239	0.21277703
16	0x3de629ab	0.11238416
17	0x3e9a01fe	0.30079645
18	0xbea6f1a7	-0.3260624
19	0xbe84d2e3	-0.25942144
20	0xbebaad4c	-0.3646034
21	0xbebe5d5b	-0.371806
22	0x3d37f435	0.04491063
23	0xbdfb59a7	-0.12272959
24	0x3e3e4129	0.18579544
25	0xbd9fe72d	-0.07807765
26	0xbf086601	-0.53280646
27	0xbe1f0515	-0.15529282
28	0xbdeea88e	-0.11653243
29	0xbd983be0	-0.07433295
30	0x3edeec66	0.43539733
31	0x3dc3dc7b	0.09563538
32	0x3eda95e8	0.42692494
33	0xbce5a94e	-0.028034832
34	0x3c283e1c	0.010268714
35	0x3cd6a4f3	0.0262017
36	0xbd3d1423	-0.046161782
37	0x3da33426	0.07968931
38	0xbe411810	-0.18856835
39	0x3e991fbf	0.29907033
40	0xbda0bb6d	-0.07848249
41	0x3ebadf2b	0.3649839
42	0x3ddb175c	0.10697815
43	0xbe8240c8	-0.2544005
44	0xbd6919ac	-0.05690925
45	0x3e272be3	0.16325335
46	0xbde3bcf8	-0.11120027
47	0xbe226968	-0.15860522
48	0xbd9ae3b5	-0.07562963
49	0xbe1eb042	-0.15496925
50	0xbdb5e2a3	-0.08881118
51	0xbea0e0c9	-0.31421497
52	0xbda11865	-0.07865981
53	0x3e328690	0.17434144
54	0xbd12b4cb	-0.03581695
55	0xbdd711c3	-0.10501435
56	0xbda58b66	-0.08083229
57	0x3d3774fd	0.044789303
58	0x3d50c25b	0.0509666
59	0x3c8773fc	0.016534798
60	0xbdc984b5	-0.09839765
61	0x3e2eeb30	0.17081904
62	0xbd7c18d4	-0.061547115
63	0xbe89ae25	-0.26890674
64	0x3bee477a	0.0072717043
65	0x3e3c1916	0.18368945
66	0x3dccf23e	0.100071415
67	0x3efa36f7	0.4887006
68	0xbe88fa38	-0.26753402
69	0x3d4df5e8	0.050283343
70	0x3b95948e	0.0045648282
71	0xbe6c5f5f	-0.23083256
72	0xbc5ca30c	-0.013466608
73	0x3e15169c	0.14559406
74	0x3ec0a017	0.3762214
75	0x3f386b5e	0.7203883
76	0xbe0c68f3	-0.1371191
77	0xbd77a385	-0.06045868
78	0xbd311edd	-0.043242324
79	0xbd153e48	-0.03643635
80	0x3e90eda5	0.28306308
81	0x3ed2581e	0.41082853
82	0x3da44cac	0.080224365
83	0x3f34a6c1	0.70566946
84	0x3e631740	0.22176838
85	0xbe9ea1fd	-0.30982962
86	0x3de98606	0.11402516
87	0x3d07d6cc	0.03316383
88	0x3d2f7e8d	0.042845298
89	0xbe534a33	-0.20633774
90	0xbd047770	-0.032340467
91	0xbe0a938a	-0.13532844
92	0xbc22b041	-0.0099297175
93	0xbe9ac597	-0.30228874
94	0x3dfeda16	0.1244394
95	0xbd625766	-0.05525913
96	0x3e107c30	0.14109874
97	0xbba08cf3	-0.004899615
98	0x3d313e21	0.04327214
99	0x3cbc278d	0.022968078
100	0xbd9fa5a7	-0.077952676
101	0x3dea3e1b	0.11437627
102	0x3e1c148c	0.15242213
103	0xbecd649c	-0.4011582
104	0x3ac888c7	0.0015299552
105	0xbd225ccf	-0.03963929
106	0xbccf95db	-0.025340011
107	0x3e0dac18	0.1383518
108	0xbdd3587f	-0.10319614
109	0x3de580ab	0.11206182
110	0x3db9dba1	0.09075094
111	0xbf368605	-0.7129825
112	0x3dee2f96	0.1163017
113	0xbdf9e9fb	-0.12202831
114	0xbdd6cb5c	-0.104880065
115	0x3e46a8f7	0.19400392
116	0xbda9d538	-0.082926214
117	0x3e17c761	0.14822151
118	0x3e27608b	0.16345422
119	0xbe1d8828	-0.1538397
120	0x3dbe6d10	0.09298146
121	0xbe88c75b	-0.26714596
122	0x3b82721d	0.0039808885
123	0x3a626ab9	0.0008637119
124	0xbcb4ce4f	-0.022071032
125	0x3e126551	0.14296462
126	0xbdbc5310	-0.091955304
127	0xbc7d0900	-0.01544404
128	0xbdd578a3	-0.104234
129	0x3d69b36c	0.057055876
130	0xbd802c4e	-0.062584504
131	0xbcb3b2ea	-0.021935899
132	0x3dd35a4c	0.10319957
133	0xbe3ae39c	-0.18250889
134	0x3dd1ccc2	0.102441326
135	0xbe6f7948	-0.23386109
136	0xbf153c76	-0.5829538
137	0xbe6627dd	-0.22476144
138	0xbe107dcf	-0.14110492
139	0xbd072d66	-0.03300228
140	0x3da32424	0.07965878
141	0x3d466559	0.048436496
142	0x3e05ced4	0.1306718
143	0x3d96be5b	0.07360526
144	0xbf0cd868	-0.5501771
145	0x3d2d292d	0.042275596
146	0x3c4d5115	0.0125315385
147	0xbd2b7adf	-0.041865226
148	0x3e51298d	0.20426007
149	0x3de15f26	0.11004476
150	0x3de705d8	0.112804115
151	0x3d96f623	0.073711656
152	0xbeb85163	-0.35999593
153	0xbd0881f8	-0.033327073
154	0x3e299bbc	0.16563314
155	0x3beea6cd	0.007283068
156	0x3e42551e	0.18977782
157	0x3de705ef	0.112804286
158	0x3d9ef28e	0.077611074
159	0x3ddc4c87	0.10756784
160	0xbf107a7b	-0.5643689
161	0xbf1335a7	-0.5750374
162	0xbd80fc9b	-0.06298181
163	0xbea4b4e6	-0.32169265
164	0x3e28d139	0.16486062
165	0x3d64850a	0.05579094
166	0x3d8791c7	0.06619602
167	0x3de71152	0.112826005
168	0xbe4e19c7	-0.20127021
169	0xbe8e9e7e	-0.27855295
170	0x3e2fb20d	0.17157765
171	0x3eb348df	0.35016534
172	0x3e72b333	0.23701172
173	0x3cd5bffe	0.026092526
174	0x3e979779	0.29607752
175	0xbc2108bf	-0.009828745
176	0x3e96f7af	0.29485843
177	0xbe741679	-0.23836698
178	0xbdaaf7cc	-0.08348045
179	0x3d22b617	0.039724436
180	0x3d2ae3c7	0.04172113
181	0x3da1f136	0.079073355
182	0xbd2baadb	-0.041910987
183	0x3b9f466a	0.004860689
184	0xbd3abc29	-0.0455896
185	0x3e1947f5	0.14968856
186	0xbe06d38d	-0.13166638
187	0x3d2e1d7f	0.0425086
188	0xbd3f821c	-0.04675494
189	0xbe07d5b2	-0.13265112
190	0xbe60daaf	-0.21958421
191	0xbd3a9701	-0.045554165
192	0xbe6beb54	-0.2303899
193	0x3d3c85a8	0.046025902
194	0xbe023de9	-0.1271893
195	0xbd5de830	-0.05417651
196	0xbd1036d5	-0.035208542
197	0xbe2cc2ef	-0.16871236
198	0xbe232732	-0.1593292
199	0x3d0fb649	0.03508595
200	0xbf224de6	-0.63400114
201	0x3f40f9f8	0.7538142
202	0x3dd1ace5	0.10238055
203	0xbc97a74e	-0.018512394
204	0x3dc26336	0.09491579
205	0x3e04511d	0.12921567
206	0xbe7d0943	-0.24710564
207	0x3e54f571	0.20796753
208	0xbeb2baf1	-0.3490825
209	0x3f00ca10	0.5030832
210	0x3e751c74	0.23936635
211	0x3e037a62	0.12839654
212	0x3eec69b1	0.46174386
213	0x3d5f780c	0.054557845
214	0x3de48439	0.11158032
215	0x3e1d84e4	0.15382725
216	0x3e0df882	0.1386433
217	0x3e0da435	0.13832171
218	0x3de56e36	0.11202662
219	0x3d887488	0.066628516
220	0x3db0e90b	0.086381994
221	0x3de43e71	0.11144722
222	0x3ccae96d	0.02476951
223	0x3e1bbb21	0.15208103
224	0xbe0c889a	-0.13723984
225	0x3df84db4	0.12124196
226	0xbe385edd	-0.18004937
227	0x3dad6d3b	0.084681
228	0x3db2a56e	0.087229595
229	0x3d79ea98	0.06101474
230	0x3e27f464	0.16401821
231	0x3db54594	0.088511616
232	0xbddde175	-0.10834018
233	0xbdfb2e25	-0.12264661
234	0xbeadac6a	-0.33920604
235	0x3d026c3d	0.031841505
236	0x3d6cc456	0.057804428
237	0x3dfa3c75	0.122185625
238	0x3e50a6b3	0.2037609
239	0x3d1e4b66	0.038646124
240	0xbec4af17	-0.38414833
241	0xbee4296f	-0.4456286
242	0xbe92e5a5	-0.2869083
243	0xbf80e5c6	-1.0070121
244	0x3ee50739	0.44732073
245	0x3e82771c	0.25481498
246	0x3e800977	0.2500722
247	0x3e428a77	0.18998133
248	0xbde79ed2	-0.113095894
249	0x3e57d0bc	0.2107572
250	0xbea07bee	-0.3134455
251	0x3e1aecf6	0.15129456
252	0x3da2d200	0.079502106
253	0x3dce779c	0.100814074
254	0x3c4ae0a0	0.012382656
255	0x3db96e04	0.09054187

sequential/dense_1/MatMul f4 [10, 20]
0	0x3ee3e6d3	0.44512042
1	0x3ef4b6da	0.47795755
2	0xbd9f4a0d	-0.07777796
3	0x3d96ff16	0.073728725
4	0x3ead5a1c	0.3385781
5	0x3ee6ab57	0.45052597
6	0x3f2f448f	0.6846399
7	0x3e5bfd01	0.21483232
8	0x3f203f6f	0.6259679
9	0xbe631902	-0.22177508
10	0x3d985fad	0.07440124
11	0x3ecfc9a1	0.40583518
12	0x3eefe0b8	0.46851134
13	0x3e6014c2	0.21882918
14	0x3e83b07d	0.25720587
15	0xbd1a1524	-0.037617818
16	0xbf2b605e	-0.6694392
17	0xbcf3ace5	-0.029745528
18	0x3f044d3a	0.5168034
19	0xbee3ff68	-0.44530797
20	0xbf505623	-0.81381434
21	0xbd445286	-0.047930263
22	0x3f2e0c09	0.67987114
23	0x3f5e07e1	0.8673077
24	0x3cc6387c	0.024196856
25	0x3ef97280	0.4872017
26	0x3c6fd866	0.014638996
27	0x3f633a73	0.8876106
28	0x3e593e76	0.21215233
29	0x3e6f2245	0.23352917
30	0x3f2e9179	0.68190724
31	0x3f218ae8	0.6310258
32	0x3f0cfb3b	0.5507085
33	0x3dceb60d	0.10093317
34	0x3ead78f9	0.33881357
35	0xbe9b77c2	-0.30364805
36	0x3bfee0a5	0.0077782446
37	0x3d5f6b31	0.054545585
38	0x3ea53e15	0.32273927
39	0x3f0b492d	0.5440853
40	0x3e79d05c	0.24395889
41	0x3f0883b3	0.5332596
42	0x3d7c8a6b	0.061655443
43	0xbe9c5de3	-0.3054038
44	0x3f22af7f	0.63549036
45	0xbea71bdb	-0.3263844
46	0x3e615c7d	0.22007938
47	0xbef9b210	-0.48768663
48	0x3d70b4e9	0.05876628
49	0x3f4427d1	0.76623255
50	0x3f6db5da	0.9285561
51	0x3e8cd2be	0.27504534
52	0x3f101ce6	0.56294096
53	0x3f11d8d2	0.56971467
54	0xbeb91219	-0.3614662
55	0xbd32bfe1	-0.04364002
56	0x3f6143ae	0.87993896
57	0x3b3fe118	0.0029278453
58	0xbe715e84	-0.23571211
59	0x3e65e605	0.22451027
60	0x3ea5cf53	0.32384738
61	0xbebdf292	-0.3709913
62	0x3ed4b945	0.415476
63	0x3ee39164	0.44446862
64	0xbe4fdce6	-0.2029911
65	0xbee1a4dc	-0.4407109
66	0xbf00f70e	-0.50376976
67	0xbf056f4d	-0.52122957
68	0xbf36aaf9	-0.71354634
69	0xbebcf1a9	-0.36903122
70	0xbdae897c	-0.08522317
71	0xbc81ad62	-0.015829746
72	0x3ddbc90d	0.10731707
73	0xbf59b891	-0.8504725
74	0xbe94b72c	-0.29046
75	0x3f7b35b0	0.98128796
76	0xbd62f56e	-0.05540984
77	0x3e0e50a9	0.13897957
78	0xbe72c370	-0.23707366
79	0x3e489b27	0.19590436
80	0x3f234f09	0.63792473
81	0xbe8bada6	-0.2728092
82	0x3e5d7db9	0.2162999
83	0x3f0ec219	0.5576492
84	0xbe45a3db	-0.19300787
85	0xbdf9d344	-0.12198499
86	0xbddd62b4	-0.10809842
87	0x3d78d360	0.060748458
88	0x3d4d6a90	0.050150454
89	0xbdd842d3	-0.10559621
90	0xbe13b973	-0.14426212
91	0x3ed864d6	0.42264432
92	0xbe8d6834	-0.27618563
93	0xbe24678b	-0.16055124
94	0x3f7b44bf	0.98151773
95	0xbdbb1e84	-0.0913668
96	0x3ef31efe	0.47484583
97	0xbebcd1b6	-0.36878747
98	0xbdfd4d87	-0.12368303
99	0x3ec8e0a1	0.39233878
100	0x3ecc31a5	0.39881626
101	0x3ed9c8b8	0.4253595
102	0xbe9a5136	-0.30140084
103	0xbedc5886	-0.43036288
104	0x3f32c3f4	0.6983025
105	0x3ec11ef2	0.37718922
106	0x3f010ce8	0.5041032
107	0x3d926b34	0.071493536
108	0x3f341873	0.70349807
109	0x3f1c930f	0.61161894
110	0xbeafe661	-0.34355453
111	0xbcf96c00	-0.030447006
112	0xbf11167c	-0.56674933
113	0x3ef4654a	0.47733527
114	0xbe4d6a86	-0.20060167
115	0xbc25cdc7	-0.010119862
116	0x3d6765ad	0.05649345
117	0xbbd20852	-0.0064096833
118	0x3f062719	0.5240341
119	0xbf05c6bc	-0.5225637
120	0xbb4acd0b	-0.003094497
121	0x3f3dac3a	0.7409092
122	0xbe9c4f7f	-0.305294
123	0xbeb068ac	-0.34454858
124	0x3f2ff08a	0.6872641
125	0x3e99079f	0.29888627
126	0x3f2aab84	0.6666796
127	0x3eb11498	0.34586024
128	0x3f3c8203	0.7363588
129	0x3e9accf1	0.30234483
130	0x3ed85717	0.42253944
131	0x3dfa0bd9	0.12209291
132	0x3dc3b45b	0.095558845
133	0xbeb2d368	-0.34926915
134	0xbda3ef98	-0.08004683
135	0x3b3d389b	0.002887285
136	0x3eb04e32	0.34434658
137	0x3cf52b2c	0.029927813
138	0x3e27c86e	0.16385052
139	0xbef2a18b	-0.47388873
140	0xbda73783	-0.08164885
141	0x3bb12b78	0.005406793
142	0xbe8d96fe	-0.2765426
143	0xbe4dd740	-0.20101643
144	0xbf38bebe	-0.7216605
145	0x3f01a5a7	0.5064339
146	0x3e8ce520	0.27518559
147	0xbefe4a4d	-0.49666062
148	0x3f12de3c	0.5737035
149	0x3f138102	0.57618725
150	0xbea8ee1e	-0.3299417
151	0xbf142da9	-0.5788217
152	0xbe98610b	-0.29761538
153	0xbe830dd9	-0.25596502
154	0xbe2011f7	-0.15631853
155	0x3f257244	0.6462748
156	0x3dfa8407	0.122322135
157	0x3ef7535c	0.48305786
158	0xbde41764	-0.11137274
159	0xbebf0f31	-0.37316278
160	0x3ee9df01	0.4567795
161	0xbdeade61	-0.11468197
162	0x3ef0ab85	0.4700586
163	0x3f42e86c	0.761359
164	0xbec2bac9	-0.3803313
165	0x3dedee4d	0.11617718
166	0x3e3c4827	0.18386899
167	0x3f0c585c	0.54822326
168	0xbee3e14c	-0.44507825
169	0xbef76fb4	-0.4832741
170	0x3f0ad699	0.542337
171	0x3f0ac5c1	0.54208
172	0x3f54946d	0.8303898
173	0x3ed3076b	0.41216597
174	0xbedf0eaf	-0.4356589
175	0xbe9fdae0	-0.31221676
176	0xbe0fca53	-0.14042024
177	0x3e95152d	0.29117718
178	0x3e8e2e00	0.2776947
179	0x3f1d2b6a	0.6139437
180	0x3df0885a	0.11744757
181	0x3f0b91b1	0.5451918
182	0xbe3d5386	-0.18488893
183	0xbe9aa619	-0.30204847
184	0xbe090bbf	-0.13383387
185	0xbf39fc1d	-0.7265032
186	0x3e4facf1	0.20280816
187	0x3e1e084e	0.15432855
188	0xbe35aa68	-0.17740786
189	0x3ed8939a	0.4230011
190	0xbe829cd1	-0.25510266
191	0x3e19c3a4	0.15016037
192	0xbcdf5b98	-0.027265355
193	0x3ece4393	0.4028593
194	0xbe1b8685	-0.15188034
195	0x3d967ff4	0.07348624
196	0xbea2f984	-0.3183099
197	0xbf2b4a44	-0.66910195
198	0x3e5c9320	0.21540499
199	0xbeb102cc	-0.34572446

sequential/dense_2/MatMul f4 [3, 10]
0	0xbfc76805	-1.5578619
1	0xbeb14a87	-0.34627172
2	0xbf0af196	-0.5427488
3	0x3f5141b3	0.81740874
4	0xbf0d6d8d	-0.55245286
5	0xbfa75659	-1.3073226
6	0xbfb03dda	-1.3768876
7	0x3ebd343e	0.3695392
8	0xbe3e0b92	-0.18559101
9	0xbec87ce2	-0.39157778
10	0x3f04e7c1	0.5191613
11	0xbeef9ee2	-0.46800905
12	0x3ef2b636	0.4740464
13	0xbf50230e	-0.8130349
14	0xbf2ad8cd	-0.6673706
15	0x3eb691b7	0.35658047
16	0x3f5d2523	0.8638479
17	0x3f3ee758	0.7457175
18	0xbf168b19	-0.58805996
19	0x3f7da5ea	0.9908129
20	0x3ecf9aff	0.4054794
21	0x3f573678	0.8406749
22	0x3ed433ae	0.41445678
23	0xbec29110	-0.380013
24	0x3f17d5df	0.59310716
25	0xbef1ceee	-0.47228187
26	0xbde0503d	-0.10952804
27	0xbf88d840	-1.0690994
28	0x3f62cbf9	0.8859249
29	0xbf2125bf	-0.6294822
