backend/model/point_recognizer/point_recognizer2.tflite (tflite, 7452 bytes, 6 tensors)

sequential/dense/BiasAdd/ReadVariableOp f4 [20]
0	0xbf6529dd	-0.89517003
1	0x3e92f3bf	0.2870159
2	0x3f0a4328	0.5400872
3	0xbf4ff3ec	-0.8123157
4	0x3f21e535	0.6324037
5	0x3fbead3e	1.4896619
6	0x3c842686	0.01613165
7	0x3f0c7358	0.548635
8	0xbf861d40	-1.0477676
9	0x3f35d2f5	0.7102502
10	0x3f42822c	0.75979877
11	0xbfc04fe0	-1.5024376
12	0x3e7a43e6	0.24439964
13	0x3f25e536	0.64802873
14	0xbf68246d	-0.9068058
15	0xbf3136e7	-0.692244
16	0xbfdd0613	-1.7267479
17	0x3eabe346	0.33571833
18	0xbfb6abbd	-1.427116
19	0xbfd3643d	-1.6514965

sequential/dense_2/BiasAdd/ReadVariableOp f4 [21]
0	0x3de744ea	0.11292441
1	0x3f03dd31	0.51509386
2	0xbfefa135	-1.8721071
3	0x3f92cb24	1.1468244
4	0xbe4428ea	-0.19156232
5	0x3c8f4b0c	0.01749184
6	0x3e28cc1f	0.16484116
7	0xbf4ec168	-0.80763865
8	0x3fe30dad	1.7738549
9	0xbf22d6c5	-0.6360896
10	0x3ed8255f	0.42216012
11	0x3f15c7c0	0.5850792
12	0xbf1bfede	-0.6093577
13	0x3ecbce4a	0.39805824
14	0xc006d97b	-2.107024
15	0xbf89b219	-1.0757476
16	0x3fba45c6	1.4552543
17	0xbf417216	-0.75564706
18	0x3eb7eadb	0.35921368
19	0x3f69c26b	0.91312283
20	0xbf18a542	-0.59627163

sequential/dense_1/BiasAdd/ReadVariableOp f4 [10]
0	0xbfcddd79	-1.6083213
1	0x3fad9211	1.3560201
2	0x3e5a599e	0.21323249
3	0x3fb0683c	1.378181
4	0xbe002560	-0.12514257
5	0x3f51faf4	0.8202355
6	0xbdb650c0	-0.089021206
7	0x3e1a577f	0.1507244
8	0x3f90740f	1.1285418
9	0x3fa74497	1.3067807

sequential/dense/MatMul f4 [20, 44]
0	0x3e3945a7	0.18092977
1	0xbda97559	-0.082743354
2	0x3df721bc	0.12066981
3	0xbabfdb00	-0.0014637411
4	0x3eb7a9a4	0.35871613
5	0x3ed8f33f	0.42373082
6	0x3e2a6fa8	0.16644156
7	0x3d5d089c	0.05396329
8	0x3e023597	0.12715755
9	0x3cf95651	0.030436667
10	0x3e32d15a	0.17462674
11	0x3d779a89	0.06045011
12	0x3eebeb81	0.46078113
13	0xbbe2f394	-0.0069260094
14	0x3ebff7bf	0.37493703
15	0xbdf569bb	-0.11983057
16	0x3ead614d	0.33863297
17	0xbd23d6b9	-0.039999697
18	0x3e9cd107	0.30628225
19	0x3b64f6bd	0.0034937107
20	0x3f7b7afb	0.9823453
21	0xbcc30c64	-0.02380962
22	0x3ee90b71	0.45516542
23	0xbe00b6f2	-0.12569788
24	0x3e00df1b	0.12585108
25	0xbc90c8bf	-0.017673848
26	0xbda5ae84	-0.08089927
27	0x3e06821c	0.1313557
28	0x3f2dc9f1	0.67886263
29	0xbe04cb03	-0.12968068
30	0x3eaf319b	0.34217533
31	0xbea64792	-0.3247648
32	0xbeef7e5a	-0.46776086
33	0xbe90fc72	-0.283176
34	0xbf60b31b	-0.87773293
35	0xbc4050cd	-0.011738014
36	0xbee46e46	-0.44615382
37	0xbe375ca6	-0.17906436
38	0xbe8bde9a	-0.2731827
39	0xbf367397	-0.71270126
40	0xbf921f5e	-1.1415823
41	0xbef97eeb	-0.48729643
42	0xbfe6441b	-1.7989534
43	0xbf9f1591	-1.2428457
44	0xbc284afa	-0.010271782
45	0xbcad8f1a	-0.0211864
46	0x3c49af00	0.01230979
47	0x3e82a29d	0.2551469
48	0xbd99ef6f	-0.075163715
49	0x3e9774f9	0.2958143
50	0xbd8392aa	-0.06424458
51	0x3e84b822	0.25921732
52	0xbeb1de3a	-0.34739858
53	0x3e6a4657	0.22878395
54	0xbef4299b	-0.47687992
55	0x3e27f690	0.1640265
56	0x3e1d0ac4	0.15336138
57	0x3d7656a6	0.06014123
58	0x3a8fba7e	0.0010965613
59	0xbd380772	-0.044928975
60	0xbecdbe39	-0.4018419
61	0xbe8a346b	-0.26993117
62	0xbf488887	-0.78333324
63	0xbed49511	-0.4151998
64	0x3f2f953e	0.685871
65	0x3db309ee	0.08742128
66	0x3f078c70	0.52948666
67	0x3c9341d4	0.017975725
68	0xbdce54fb	-0.100748025
69	0xbd1b752e	-0.037953548
70	0xbe928b63	-0.2862197
71	0x3ca8778f	0.020564822
72	0x400e13ac	2.2199507
73	0x3e2e7036	0.17034993
74	0x3f3b3e35	0.73141795
75	0x3e1fe2d4	0.15613872
76	0xbf7dcb38	-0.9913821
77	0x3e4d93d5	0.20075925
78	0xbfe7b63e	-1.8102491
79	0x3e95703a	0.29187185
80	0x3f2b24f4	0.6685326
81	0x3e6e7d9e	0.23290107
82	0x3ec837d7	0.39105102
83	0x3e883d2f	0.2660918
84	0xbf182392	-0.59429276
85	0x3eb6deb9	0.357168
86	0xbfa2d81c	-1.2722201
87	0x3ece5749	0.40300968
88	0x3eb789a6	0.35847205
89	0xbcba516f	-0.022743909
90	0xbe407499	-0.18794478
91	0xbe060435	-0.13087542
92	0xbe8c7a32	-0.27436978
93	0x3ebf2fa2	0.37341028
94	0xbea83047	-0.32849333
95	0x3ec3fcef	0.3827891
96	0xbf6703a2	-0.9023992
97	0x3e4a260f	0.1974108
98	0xbf391e2a	-0.7231165
99	0x3e57e846	0.21084699
100	0x3e3c935a	0.18415585
101	0xbe83133f	-0.2560062
102	0x3e40894c	0.18802375
103	0x3d561349	0.052264486
104	0x3e854da2	0.26035792
105	0x3ddf8c7a	0.10915466
106	0x3e765b18	0.24058187
107	0x3e02ef1d	0.12786527
108	0x3f2b6a08	0.66958666
109	0xbeb2a61c	-0.34892356
110	0x3e4591b0	0.19293857
111	0x3e37828b	0.17920892
112	0x3eccf33d	0.40029326
113	0x3ebf56d1	0.37370923
114	0x3f0acac0	0.5421562
115	0x3f2d400a	0.6767584
116	0x3fb0b1f3	1.3804306
117	0xbec479b3	-0.383741
118	0x3db493a2	0.08817221
119	0x3e3448e4	0.1760593
120	0x3efa6ba9	0.48910263
121	0x3ed7356f	0.42032954
122	0x3f235056	0.6379446
123	0x3f565813	0.8372814
124	0x3eaaa383	0.33327875
125	0xbec04115	-0.37549654
126	0x3e28c34d	0.16480751
127	0x3e00b8c6	0.12570485
128	0x3ebe50d0	0.3717103
129	0x3e871357	0.26381943
130	0x3edb7ed5	0.42870203
131	0x3eb27895	0.34857622
132	0x3e127575	0.14302619
133	0xbc91f50f	-0.017817048
134	0xbc0c21c0	-0.0085529685
135	0x3e2fc418	0.17164648
136	0x3db51f68	0.08843881
137	0x3f332adb	0.6998727
138	0x3d0adcbd	0.03390192
139	0x3ea88fe0	0.32922268
140	0x3da74acf	0.081685655
141	0x3e60342b	0.218949
142	0x3e774c8f	0.24150299
143	0x3e3d10ab	0.1846339
144	0x3c8f0cb3	0.01746211
145	0x3e358842	0.1772776
146	0xbc954b53	-0.018224394
147	0x3dfac903	0.12245371
148	0xbc5ff9a3	-0.013670358
149	0x3dc104de	0.094247565
150	0xbdced606	-0.100994155
151	0x3d9d2352	0.076727524
152	0x3e58db64	0.21177441
153	0x3e35519d	0.17706914
154	0x3c81a198	0.015824124
155	0x3db1ce52	0.086819306
156	0xbb6abd70	-0.003581848
157	0xbde0d0cf	-0.10977327
158	0x3c9788a4	0.018497773
159	0xbe27113d	-0.1631517
160	0xbedf7b21	-0.43648627
161	0x3e08d395	0.13361962
162	0x3d37293c	0.04471706
163	0x3df49ffb	0.11944576
164	0xbe6caf22	-0.23113683
165	0xbe9e39d6	-0.309035
166	0xbf150e75	-0.58225185
167	0xbecdc096	-0.40185994
168	0xbe836b00	-0.25667572
169	0x3e4c0e6e	0.1992738
170	0x3de82eb0	0.1133703
171	0x3da54bd4	0.08071104
172	0xbbd0487b	-0.0063562966
173	0xbfec237c	-1.8448329
174	0xbe816619	-0.25273207
175	0xbfe7268e	-1.8058641
176	0xbea628e5	-0.32453075
177	0x3b4e8265	0.0031510827
178	0xbde21318	-0.11038798
179	0xbe282989	-0.16422094
180	0xbdf3a2bf	-0.11896276
181	0xbf0c6a2a	-0.54849494
182	0x3e00d718	0.12582052
183	0xbd033508	-0.032032996
184	0x3f50583e	0.81384647
185	0x3c96aa87	0.01839186
186	0x3fd68be4	1.6761441
187	0x3e0fdd67	0.14049302
188	0xbe97b570	-0.29630613
189	0x3e583c3f	0.21116732
190	0xbdb84ab6	-0.08998625
191	0x3deb6607	0.114940695
192	0x3e036eb0	0.12835193
193	0x3cb1ac06	0.021688472
194	0x3e9f7331	0.31142572
195	0xbdefca27	-0.117084794
196	0xbea8c636	-0.32963723
197	0x3e5e5a32	0.21714094
198	0xbef86cc3	-0.4852048
199	0x3d89993c	0.0671868
200	0xbebc3da3	-0.36765775
201	0xbd9c70df	-0.07638716
202	0xbeb656f2	-0.3561321
203	0xbe6cc6a2	-0.23122647
204	0x3f239e48	0.63913393
205	0x3e7aa33d	0.24476333
206	0x3f0a87b3	0.5411331
207	0x3dd6c665	0.104870595
208	0x3f37b9e7	0.7176804
209	0xbdeff545	-0.11716703
210	0x3f3bfff9	0.7343746
211	0xbeb83dcc	-0.35984647
212	0x3f197d50	0.59956837
213	0x3e9593dc	0.2921437
214	0x3db8d3a9	0.09024746
215	0x3e3622f4	0.17786771
216	0xbeba71a1	-0.36414817
217	0x3c5fb8fa	0.013654942
218	0xbf26ca1a	-0.6515213
219	0xbe45c7aa	-0.19314447
220	0x3ddcab3a	0.107748464
221	0x3e22ddcc	0.15904921
222	0xbd22e2f8	-0.039767236
223	0xbe6cc573	-0.23122196
224	0x3f8033c2	1.0015795
225	0xbea806fd	-0.32817832
226	0x3f2328e7	0.6373429
227	0x3e295593	0.1653655
228	0x3f05bd48	0.52241945
229	0xbc8cccc7	-0.01718749
230	0x3ee6702e	0.4500746
231	0xbe11c40b	-0.1423494
232	0x3ef72d32	0.4827667
233	0x3cf949c9	0.030430691
234	0x3eb59866	0.35467833
235	0xbd73c714	-0.059516028
236	0x3eaafb84	0.33395016
237	0xbdc7eae7	-0.09761601
238	0x3e946529	0.2898343
239	0xbe27d44b	-0.16389577
240	0x3f72ad88	0.9479604
241	0x3d2bf9fd	0.041986454
242	0x3ee6d46a	0.45083934
243	0xbcb14cb9	-0.02164303
244	0x3eb26409	0.34841946
245	0xbcf00dc2	-0.029303435
246	0x3e918eba	0.28429204
247	0x3c8dc1f1	0.017304393
248	0x3fb20c16	1.3909938
249	0x3db244a3	0.08704498
250	0x3ebce853	0.36896
251	0x3d7942fc	0.060854897
252	0x3d4d113f	0.050065275
253	0x3d9351c1	0.07193328
254	0xbaec2a0a	-0.00180179
255	0x3e01cb3c	0.12675184

sequential/dense_1/MatMul f4 [10, 20]
0	0x3f568607	0.8379826
1	0x3f21d8b4	0.6322129
2	0x3f250aa0	0.6446934
3	0xbd1a4dc2	-0.037671812
4	0xbe7bf500	-0.24605179
5	0x3f801730	1.0007076
6	0x3e630efa	0.22173682
7	0x3f37b3cf	0.7175874
8	0xbcfe7c87	-0.031065239
9	0x3fd38013	1.652346
10	0x3e7ef999	0.24899901
11	0x3d277b31	0.04088897
12	0x3f0e23c3	0.5552332
13	0x3ea913ed	0.33023015
14	0xbd805c8e	-0.062676534
15	0x3fa7bd50	1.3104649
16	0xbd764871	-0.06012768
17	0x400c7a5e	2.1949687
18	0xbe8dd1a5	-0.2769901
19	0xbce9db43	-0.028546935
20	0xbe0c9c6c	-0.13731545
21	0x3ed68af1	0.4190288
22	0x3fdce615	1.7257715
23	0x3c4844dc	0.012223449
24	0x3feb778a	1.8395855
25	0x3f629506	0.8850864
26	0x3f0e0967	0.55483097
27	0x3ef348d0	0.4751649
28	0x3cf44b10	0.029820949
29	0x3de123be	0.109931454
30	0x3f16101e	0.5861834
31	0x3f1e0c8e	0.61737907
32	0x3f612f60	0.87962914
33	0xbeb8e517	-0.36112282
34	0x3f55d14f	0.83522505
35	0x3d9fdca1	0.078057535
36	0x3e357855	0.17721684
37	0xbf335568	-0.70052195
38	0x3ed0bfcc	0.4077133
39	0xbe99c67a	-0.30034238
40	0x3ee308f0	0.44342756
41	0xbf4b9232	-0.7951995
42	0xbf0116f0	-0.50425625
43	0x3f5ca285	0.86185485
44	0xbeee0340	-0.46486855
45	0x3f007203	0.5017397
46	0x3f0fa4df	0.5611095
47	0xbde919e9	-0.11381895
48	0x3f3ec548	0.7451978
49	0x3f80e103	1.0068668
50	0xbf38dce3	-0.72212046
51	0x3f535d8f	0.82564634
52	0xbe1b3830	-0.15158153
53	0x3df6f613	0.12058654
54	0x3f7a12b2	0.97684777
55	0x3f0780d1	0.52930933
56	0x3f3e4dcb	0.7433745
57	0xbed88fc3	-0.4229718
58	0x4023ed56	2.5613608
59	0x3e798364	0.24366528
60	0x3eaa2fa5	0.33239475
61	0x3fa50a7f	1.2893828
62	0xbf63ed1b	-0.8903367
63	0x3e43b9fe	0.19113919
64	0xbf4cce0f	-0.8000192
65	0xbfffc355	-1.9981486
66	0xc04422df	-3.0646284
67	0x3f8e5551	1.1119787
68	0x3e2d8700	0.1694603
69	0x3eecb51d	0.46231928
70	0x3c9d0e31	0.019171806
71	0x3f80e61e	1.0070226
72	0xbf9ab98a	-1.2087872
73	0x3dccaa2b	0.099933945
74	0xc01773c2	-2.3664403
75	0x3f541ebc	0.82859397
76	0xbf17e4db	-0.5933358
77	0xc006ee49	-2.1082938
78	0x3d2938c5	0.041313905
79	0x3e249265	0.1607147
80	0x3da5de32	0.08099021
81	0xbe68a843	-0.22720437
82	0x3fea14cc	1.8287597
83	0x3e7dd048	0.24786484
84	0x3f339c98	0.7016082
85	0x3e1adfbd	0.15124412
86	0x3e3cad35	0.18425448
87	0xbf69bf65	-0.9130767
88	0x3e96e037	0.29467937
89	0xbf64c468	-0.8936219
90	0x3fd804d2	1.6876471
91	0xbeca91ab	-0.3956426
92	0x3f7e35e2	0.9930097
93	0x40045ad6	2.0680442
94	0x3f314779	0.69249684
95	0x3e933e97	0.2875869
96	0x3e54792f	0.20749353
97	0x3f2a0987	0.6642079
98	0xbea76855	-0.32696787
99	0x3df01162	0.117220655
100	0xbda4f8b7	-0.08055251
101	0x3f0e5b8a	0.5560843
102	0x3d0bace7	0.03410044
103	0xbd554cc7	-0.052075174
104	0x3b0546cf	0.0020336395
105	0x3c07406b	0.0082551045
106	0x3e2eef1c	0.170834
107	0x3eac03dd	0.33596697
108	0x3d081f08	0.03323272
109	0xc01b1395	-2.4230702
110	0x3efd5a45	0.49482933
111	0x3f3856b2	0.72007287
112	0xbb8e5a21	-0.0043442403
113	0xbf1f6640	-0.62265396
114	0x3ec44b85	0.38338867
115	0xbca387df	-0.01996225
116	0x3f660dd2	0.8986484
117	0xbf1e2cb7	-0.6178698
118	0xbcd3dbab	-0.025861582
119	0x3fd103df	1.6329306
120	0x3fc34d14	1.5257897
121	0xbe81eeec	-0.25377595
122	0x3e88efa6	0.26745337
123	0x3f0d709c	0.55249953
124	0x3f333d7c	0.7001569
125	0x3e1c1c2f	0.15245126
126	0x3e6890ad	0.2271144
127	0xbe283e27	-0.16429959
128	0x3ea279e5	0.31733623
129	0x3fae8643	1.3634723
130	0x3e0102ef	0.12598775
131	0xbdcd4072	-0.100220576
132	0xbed1d82d	-0.40985242
133	0xbb737545	-0.0037148756
134	0x3e039042	0.12847999
135	0x3fa8a9d0	1.3176823
136	0x3e95190b	0.2912067
137	0x3f8bf2ce	1.0933473
138	0xbc8fd853	-0.017559206
139	0x3e737447	0.23774825
140	0x3f06bb12	0.52629197
141	0x3f21c615	0.63192874
142	0x3f97819a	1.1836426
143	0x3ef5fe74	0.48045695
144	0xbf03deec	-0.51512027
145	0xbe668ba0	-0.225142
146	0x3d3654b3	0.04451437
147	0x3f153e36	0.5829805
148	0x3ea77a92	0.327107
149	0xbe1d65fa	-0.15370932
150	0x3f61f160	0.88258934
151	0x3fb72040	1.4306717
152	0xbe1d8bfc	-0.15385431
153	0x401425f1	2.3148158
154	0x3ed250c1	0.41077235
155	0x3d996cba	0.07491441
156	0x403b11bb	2.9229572
157	0xbebb3886	-0.3656656
158	0x3f08b7c1	0.53405386
159	0x3e90b072	0.28259617
160	0x3e02d2ea	0.1277577
161	0x3fbbc08c	1.4668136
162	0xbf1eb30d	-0.6199196
163	0xbc839dc2	-0.016066436
164	0xbe7c9c76	-0.2466906
165	0x3faa9c00	1.3328857
166	0x3f18254c	0.5943191
167	0xbf6bbe2f	-0.9208707
168	0x3cee2a7d	0.029072994
169	0x3eb6e1a7	0.35719034
170	0x3e84be0c	0.25926244
171	0x3f276d2e	0.6540097
172	0x3f8cdf0b	1.1005567
173	0x3e604182	0.21899989
174	0x3ed8fbd0	0.42379618
175	0x3f28576a	0.65758383
176	0xbea6a47f	-0.32547376
177	0xbd3f47c5	-0.046699304
178	0xbcfd6f73	-0.030936932
179	0x3efd5030	0.4947524
180	0x3f35f15f	0.7107143
181	0x3df1bc7b	0.11803528
182	0xbe97efa1	-0.2967501
183	0x40171619	2.3607237
184	0x3c63543b	0.013875063
185	0x3e7c6081	0.24646188
186	0x3b8807d2	0.004151323
187	0xbddc9afd	-0.10771749
188	0x3fe93a55	1.8220927
189	0xbebb1bfb	-0.36544785
190	0x3f011408	0.5042119
191	0xbd80ae19	-0.062832065
192	0xbecf8c74	-0.40536845
193	0xbe8522cd	-0.26003113
194	0x3d71785b	0.05895267
195	0x3f21c77b	0.6319501
196	0xbbfa5aea	-0.0076402323
197	0xbfac7728	-1.3473864
198	0xbe59da8e	-0.21274778
199	0x3fccedaf	1.6010035

sequential/dense_2/MatMul f4 [21, 10]
0	0xbf18bd17	-0.5966353
1	0x3ed2056a	0.41019756
2	0x3e9f52f4	0.31117976
3	0xbf55aee1	-0.8346997
4	0xbe4bf2b3	-0.19916801
5	0xbef41c85	-0.4767801
6	0xbf1695da	-0.58822405
7	0x3f0f2f51	0.55931574
8	0xbe9de618	-0.3083961
9	0xbfe3536f	-1.7759837
10	0xbfd8f1ff	-1.6948851
11	0xbe80d2af	-0.2516074
12	0xbed24dc5	-0.41074958
13	0xbf05f204	-0.5232241
14	0xbe2d4e9b	-0.16924517
15	0x3b963f58	0.004585188
16	0x3f63e8b3	0.89026946
17	0xbf937d1a	-1.1522553
18	0xbeef6928	-0.46759915
19	0x3ecc3774	0.39886057
20	0xbe2aa4d2	-0.16664436
21	0xbf9a0d6c	-1.2035346
22	0xbf5f8e97	-0.8732695
23	0x3e9d4e48	0.30723786
24	0x3cc558c3	0.024090176
25	0xbe92956e	-0.2862963
26	0x3e301376	0.17194924
27	0x3e8ea8ab	0.27863058
28	0xbe940a8e	-0.28914303
29	0x3eba96c8	0.36443162
30	0xbf32ad33	-0.6979553
31	0xbf036e5b	-0.51340264
32	0xbf939d4f	-1.1532382
33	0xbf6d4c39	-0.9269443
34	0x3d75e082	0.06002856
35	0xbf693532	-0.91096795
36	0x3eaa7890	0.33295107
37	0x3d8a11f5	0.06741706
38	0x3f351eed	0.70750314
39	0x3ec9d29d	0.39418498
40	0xc004aa70	-2.0729027
41	0xbd92caf3	-0.07167616
42	0x3e9f2d61	0.3108931
43	0xbf6e7725	-0.9315055
44	0xbf27062a	-0.6524378
45	0x3e7372fe	0.23774335
46	0x3f1f6855	0.62268573
47	0xbc8dfd10	-0.017332584
48	0xbf0abe67	-0.5419678
49	0xbc83a565	-0.016070077
50	0xbfca6d7a	-1.581466
51	0xbf4f4b34	-0.80974126
52	0xbf508a59	-0.814611
53	0xbf37ca46	-0.7179302
54	0x3eeebcbd	0.4662837
55	0x3e3391bd	0.17536063
56	0x3e1ae96b	0.15128104
57	0x3ed64031	0.4184585
58	0xbfacebbc	-1.350944
59	0x3ec4627f	0.38356397
60	0x3dfc10cd	0.12307892
61	0x3f089a5e	0.53360546
62	0x3ea1b164	0.3158065
63	0x3f2ae85c	0.667608
64	0x3e9cb38e	0.3060574
65	0xbfb02bb7	-1.3763341
66	0xbe880666	-0.26567382
67	0xbeb5334c	-0.353907
68	0x3da512e7	0.08060246
69	0xc00b283d	-2.174331
70	0x3f0e1714	0.55503964
71	0x3dd0e703	0.10200312
72	0x3d4f33a4	0.050586358
73	0x3f23b247	0.63943905
74	0x3f5d4ab5	0.8644212
75	0xbf168ca7	-0.5880837
76	0x3d89a057	0.067200355
77	0xbf3442a5	-0.7041419
78	0xbc7bd0c7	-0.015369601
79	0xbff425e5	-1.9074064
80	0xbf9cac6c	-1.2240119
81	0xbf4cd347	-0.80009884
82	0x3e8175fd	0.2528533
83	0x3f33a30d	0.7017067
84	0xbf305586	-0.688805
85	0xbfd06399	-1.6280395
86	0xbe01a69f	-0.12661217
87	0x3eeffd14	0.4687277
88	0xbfbc88c1	-1.4729234
89	0x3d56451b	0.052311998
90	0x3e81918b	0.25306353
91	0xbd3ad0d2	-0.045609303
92	0x3ec38264	0.38185418
93	0xbf88d79b	-1.0690798
94	0xbf5ebd39	-0.8700748
95	0xbfa9b2cb	-1.3257688
96	0x3f032a52	0.5123645
97	0xbf705af1	-0.93888766
98	0xbebadc4e	-0.36496204
99	0x3e84cf90	0.25939608
100	0xbf61c853	-0.88196295
101	0x3ed302b2	0.41212994
102	0xbec953ec	-0.3932184
103	0xbfa5db81	-1.2957612
104	0xbed4d037	-0.41565105
105	0x3f16a02f	0.5883817
106	0xc00fad54	-2.244954
107	0xbf074929	-0.5284601
108	0x3f3e7c92	0.7440883
109	0xbfac70a4	-1.3471875
110	0xbf1ea179	-0.6196514
111	0x3ebb9038	0.36633468
112	0xbfb4db75	-1.4129473
113	0xbee422da	-0.4455784
114	0x3c23e772	0.010003911
115	0xbe79cdb4	-0.24394876
116	0xc03c0796	-2.937963
117	0x3f386ab2	0.72037804
118	0xbf285bf6	-0.6576532
119	0xbeceb290	-0.40370607
120	0x3f25a6ae	0.6470746
121	0xbefdec3b	-0.49594292
122	0x3f191f48	0.59813356
123	0xbf882619	-1.0636626
124	0xbee82d2c	-0.45346963
125	0xbe22a796	-0.15884241
126	0xbe04cc49	-0.12968554
127	0x3ed30b1d	0.41219416
128	0xbd3f0973	-0.04663987
129	0xbdf56999	-0.11983032
130	0x3df7bfa8	0.120971024
131	0xbf31ad6d	-0.6940525
132	0x3f55c8df	0.8350963
133	0xbf8c3af5	-1.0955492
134	0xbf4c5c2a	-0.7982813
135	0xbf8a281e	-1.0793493
136	0x3eb19845	0.34686485
137	0xbf17d810	-0.5931406
138	0x3e0e3c93	0.13890295
139	0xbe0ab150	-0.13544202
140	0x3dd21705	0.10258297
141	0xbfaee828	-1.3664598
142	0xbda2aa79	-0.07942671
143	0x3ebde16f	0.37086055
144	0xbf91938f	-1.1373156
145	0xbea60a14	-0.32429564
146	0xbdcdebdd	-0.10054753
147	0x3ed3858b	0.41312823
148	0xbe26cddf	-0.16289471
149	0x3e598c33	0.21244888
150	0x3f91813b	1.1367563
151	0x3e2dcf63	0.16973643
152	0xbf12c062	-0.573248
153	0xbf854ad3	-1.041346
154	0xbecf0215	-0.40431276
155	0x3ee62142	0.4494725
156	0x3f21c70e	0.6319436
157	0x3f141d8d	0.5785759
158	0xbe1a2907	-0.15054713
159	0xbfd61f52	-1.6728308
160	0xbfc1bcc8	-1.5135736
161	0x3eb544b8	0.3540399
162	0xbf93fdb5	-1.15618
163	0xbfa2cc03	-1.271851
164	0xbfc2c6ee	-1.5216959
165	0x3e58cc08	0.21171582
166	0xbe49993d	-0.19687362
167	0xbffa470c	-1.9552932
168	0x3f241f8f	0.64110655
169	0x3e036f12	0.12835339
170	0xbf473e8f	-0.7782983
171	0x3d593c63	0.053036105
172	0x3f1ba6d0	0.6080141
173	0xbf4382ea	-0.76371634
174	0xbf777372	-0.9666053
175	0x3eab9a32	0.3351608
176	0xbf2c7440	-0.67364883
177	0x3e806127	0.2507412
178	0xbf8c2b94	-1.0950799
179	0x3d1b9e5b	0.037992816
180	0xbf95adc6	-1.1693656
181	0xbe998a79	-0.2998846
182	0x3ef258ef	0.47333476
183	0xbf6e0c59	-0.9298759
184	0xbeb3bda0	-0.3510561
185	0xbdd4e370	-0.10394943
186	0xbfb8cf44	-1.4438252
187	0x3f0665c3	0.52499026
188	0xbe6339db	-0.22190039
189	0xbea526ee	-0.32256263
190	0xbf4e9781	-0.80699927
191	0x3f006136	0.5014833
192	0xbf8e459c	-1.1114993
193	0xbf9e0e64	-1.2348142
194	0xbf0632a9	-0.5242105
195	0x3f5dbbec	0.8661487
196	0xbfa7f9e4	-1.3123136
197	0xbfe90e8e	-1.8207567
198	0x3f0cc107	0.54982036
199	0xbf0f880e	-0.5606698
200	0xbf5f19f8	-0.87149
201	0x3dd31501	0.103067406
202	0xbf3d1911	-0.73866373
203	0xbfcfab97	-1.622424
204	0x3f2d5103	0.6770174
205	0x3dba94ce	0.091104135
206	0xbf5baaac	-0.858073
207	0xbfa004cd	-1.2501465
208	0xb91fadb8	-0.00015228137
209	0x3f1f9a54	0.6234486
