backend/model/point_recognizer/point_recognizer.tflite (tflite, 6660 bytes, 6 tensors)

sequential/dense/BiasAdd/ReadVariableOp f4 [20]
-0.25872776 0.2172072 -0.29705667 -0.24103692 -0.39335537 -0.32692012 -0.35872763 0.19519311
0.091898195 -0.38549373 -0.544975 -0.21120189 -0.08379784 -0.19297834 0.1635165 -0.38748068
-0.35324222 0.016762774 -0.2171919 0.00837098
00000000: f777 84be 906b 5e3e d017 98be 62d2 76be
00000010: e065 c9be 1362 a7be 26ab b7be b4e0 473e
00000020: 1f35 bc3d 6f5f c5be 7b83 0bbf 4f45 58be
00000030: 349e abbd 1d9c 45be df70 273e de63 c6be
00000040: 2adc b4be 1652 893c 8e67 5ebe 6f26 093c

sequential/dense_2/BiasAdd/ReadVariableOp f4 [3]
-0.07112899 -0.43704906 0.404433
00000000: 13ac 91bd e5c4 dfbe d811 cf3e

sequential/dense_1/BiasAdd/ReadVariableOp f4 [10]
1.1451697 0.53934103 0.21726598 -0.41909504 0.4802523 0.43870908 0.16027887 0.8494699
0.7016936 0.82097113
00000000: ec94 923f 4112 0a3f f97a 5e3e a093 d6be
00000010: a1e3 f53e 7a9e e03e 2520 243e dc76 593f
00000020: 31a2 333f 2a2b 523f

sequential/dense/MatMul f4 [20, 44]
-0.04237798 -0.17776859 -0.2471054 0.25337854 -0.5070219 -0.69518834 -0.16485374 -0.18948595
-0.20269367 -0.121370845 -0.2446607 0.054854263 -0.13089663 0.32424995 0.3004579 0.14463454
0.07633035 0.1955802 0.1559326 0.12616847 -0.01805814 0.25910532 0.3239776 0.07558197
-0.00019410823 -0.39687252 -0.029621722 -0.8073028 -0.010275089 0.09717603 0.10327296 -0.056261875
0.028152343 -0.5994179 -0.0057361703 -0.8701104 -0.0020121248 0.07394296 -0.087770864 0.07970393
-0.08593095 0.11836615 -0.14596553 -0.023562923 0.0049270075 0.02917975 0.24453887 0.17338645
-1.1490525 0.15869357 -1.1954705 0.12774196 -1.1930538 0.09524216 -1.0991172 0.07347376
-0.48923534 0.04338328 -0.38627365 0.010525339 -0.16197297 -0.026795626 -0.122584336 -0.039253328
-0.122294515 0.03890531 0.012321131 -0.017005702 -0.035787173 0.08962997 -0.059268408 0.08099037
0.10428038 -0.24527957 0.09674252 -0.016749375 0.07066484 0.035495616 0.038149543 0.06581394
0.16171001 -0.27535138 0.11043034 -0.15031773 0.17957109 -0.09218983 0.14898981 -0.07596094
-0.2308999 -0.17839937 0.28009978 -0.007984281 -0.092739746 -0.6283934 -0.07946025 -0.20160605
-0.07993867 0.018757896 -0.092551574 -0.28349802 0.2558901 0.05540972 0.25032213 0.1516785
0.61151457 0.15362254 0.54682744 0.074997775 0.7239461 0.23183767 0.56035864 0.017095724
0.46790305 0.0032628933 0.58452386 -0.3277925 0.70789206 0.1990195 0.6338295 -0.066124074
0.48895457 -0.11125677 0.41589436 -0.21937503 0.2886286 0.19784772 0.48121095 0.119639136
0.42757216 0.13959433 0.43743584 0.15721579 -0.1930596 0.029273616 -0.06210904 0.19797602
-1.0154536 -0.15005311 -0.91396296 -0.16433479 -0.69360334 -0.0777775 -0.6533629 -0.07587303
-0.17589217 0.0009439011 0.11994566 -0.05019063 0.06702635 -0.02498426 0.32075864 0.035798788
0.2382831 0.18911844 0.35472593 0.0914609 0.38568276 0.06079433 0.10708974 0.03795287
0.44152457 0.3165485 0.06374394 -0.011897796 0.30971473 0.1133268 0.11446497 0.112798326
0.30974266 0.5525894 0.24329548 0.2420353 0.116187006 0.2365862 0.07636509 0.07301601
-0.20488411 -0.20219582 -0.16189171 -0.259128 0.7061716 -0.5763991 0.5609563 -0.27654424
0.5256673 -0.108399495 0.30424017 -0.18770124 -0.13065298 -0.069346495 -0.6284935 0.015041467
-0.5858251 0.14172716 -0.48580867 0.15159461 -0.7617978 0.12959808 -0.46312997 0.04158216
-0.48829347 0.061494697 -0.47258416 -0.1700632 -0.57502115 0.24548067 -0.42502007 0.25761938
-0.2799635 0.002154036 -0.47727823 -0.0546005 -0.42729247 0.49501604 -0.22848369 0.16738617
-0.1836006 0.26756603 -0.25169206 0.20794725 -0.21744554 -0.20378105 -0.18399794 -0.29902115
-0.006635932 -1.041981 -0.029336914 -0.35956246 -0.09385694 -0.057366148 -0.057684723 -0.3651332
-0.04160884 0.1283983 -0.027915265 0.10856472 -0.019854957 0.061668165 0.0031103215 0.043104913
-0.17456476 0.30890337 -0.13695562 0.021496743 -0.2715355 -0.40563273 -0.19103816 -0.8240741
-0.003612559 0.21030465 -0.16204016 0.07072684 -0.24438576 -0.5738993 0.06554398 -0.7839369
00000000: 8894 2dbd f808 36be 3309 7dbe d5ba 813e
00000010: 30cc 01bf ddf7 31bf 6bcf 28be 9b08 42be
00000020: ee8e 4fbe 4791 f8bd 5688 7abe ddae 603d
00000030: c409 06be 1704 a63e 9ed5 993e 141b 143e
00000040: 1653 9c3d 2d46 483e ccac 1f3e 4f32 013e
00000050: aaee 93bc 74a9 843e 64e0 a53e b8ca 9a3d
00000060: 8889 4bb9 e032 cbbe 41a9 f2bc 65ab 4ebf
00000070: d958 28bc 3a04 c73d c680 d33d da72 66bd
00000080: be9f e63c 7473 19bf 7cf6 bbbb 8ebf 5ebf
00000090: dadd 03bb 686f 973d 36c1 b3bd d03b a33d
000000a0: 91fc afbd f469 f23d fd77 15be 0807 c1bc
000000b0: bc72 a13b 5f0a ef3c 6668 7a3e 388c 313e
000000c0: 2714 93bf 9180 223e 2d05 99bf cace 023e
000000d0: fdb5 98bf 520e c33d dfaf 8cbf 6979 963d
000000e0: 0e7d fabe abb2 313d a9c5 c5be 7972 2c3c
000000f0: 3edc 25be 8082 dbbc 7f0d fbbd 19c8 20bd
00000100: 8c75 fabd 2d5b 1f3d 92de 493c 8b4f 8bbc
00000110: 9295 12bd eb8f b73d 6ec3 72bd 47de a53d
00000120: f490 d53d 912a 7bbe f120 c63d fc35 89bc
00000130: bab8 903d da63 113d b242 1c3d 75c9 863d
00000140: 4f97 253e dbfa 8cbe 4d29 e23d e4ec 19be
00000150: 7ce1 373e 06ce bcbd c990 183e 6991 9bbd
00000160: 0671 6cbe 53ae 36be 3d69 8f3e 80d0 02bc
00000170: 56ee bdbd 64de 20bf 0ebc a2bd d171 4ebe
00000180: e3b6 a3bd 29aa 993c ae8b bdbd a726 91be
00000190: 0704 833e 4df5 623d 392a 803e 9c51 1b3e
000001a0: 388c 1c3f 3a4f 1d3e e2fc 0b3f 6f98 993d
000001b0: 8854 393f db66 6d3e aa73 0f3f 550c 8c3c
000001c0: fd90 ef3e 44d6 553b 5ba3 153f 6bd4 a7be
000001d0: 6a38 353f c5cb 4b3e a642 223f 0f6c 87bd
000001e0: 4158 fa3e 97da e3bd 1bf0 d43e d9a3 60be
000001f0: 21c7 933e 9898 4a3e 4861 f63e 5d05 f53d
00000200: bdea da3e d1f1 0e3e 97f7 df3e 2dfd 203e
00000210: 6ab1 45be 39cf ef3c 0c66 7ebd 3aba 4a3e
00000220: 62fa 81bf 86a7 19be 7af9 69bf 6147 28be
00000230: fd8f 31bf cf49 9fbd ca42 27bf 5263 9bbd
00000240: 141d 34be 2170 773a 12a6 f53d b194 4dbd
00000250: 1c45 893d caab ccbc 7a3a a43e c0a1 123d
00000260: 7c00 743e 44a8 413e a39e b53e da4f bb3d
00000270: 3678 c53e 7a03 793d de51 db3d 7874 1b3d
00000280: 820f e23e a512 a23e 2f8c 823d f9ee 42bc
00000290: ee92 9e3e e217 e83d 9c6c ea3d cf02 e73d
000002a0: 9796 9e3e 8076 0d3f 7322 793e 1ad8 773e
000002b0: 74f3 ed3d a743 723e 4d65 9c3d 6b89 953d
000002c0: 24cd 51be 6c0c 4fbe f1c6 25be 6dac 84be
000002d0: a9c7 343f e48e 13bf d59a 0f3f 3597 8dbe
000002e0: 2292 063f 8e00 debd 5ec5 9b3e c134 40be
000002f0: e5c9 05be 8905 8ebd f3e4 20bf 7c70 763c
00000300: a2f8 15bf ed20 113e eabb f8be 9e3b 1b3e
00000310: 2e05 43bf 5cb5 043e 5f1f edbe 0e52 2a3d
00000320: 9a01 fabe dde1 7b3d 8df6 f1be 0c25 2ebe
00000330: 9634 13bf 495f 7b3e 3b9c d9be b0e6 833e
00000340: 6057 8fbe ba2a 0d3b d05d f4be c6a4 5fbd
00000350: 14c6 dabe be72 fd3e a1f7 69be 4867 2b3e
00000360: cc01 3cbe 6afe 883e c8dd 80be 20f0 543e
00000370: 0baa 5ebe fbab 50be f569 3cbe 4d19 99be
00000380: 3b72 d9bb a25f 85bf f853 f0bc 9218 b8be
00000390: 1138 c0bd c4f8 6abd d146 6cbd bdf2 babe
000003a0: 086e 2abd d87a 033e 8eae e4bc 2e57 de3d
000003b0: dda6 a2bc c297 7c3d 89d6 4b3b c78e 303d
000003c0: 1bc1 32be 9528 9e3e 183e 0cbe f019 b03c
000003d0: b306 8bbe 18af cfbe 829f 43be 85f6 52bf
000003e0: afc0 6cbb 1a5a 573e dbed 25be 3cd9 903d
000003f0: 4340 7abe 11eb 12bf ec3b 863d 17b0 48bf

sequential/dense_1/MatMul f4 [10, 20]
-0.17062081 -1.3013072 -0.5627258 0.35875466 -0.85022354 -0.017606478 -0.6406109 0.22170632
0.33426708 -0.16669267 0.30901873 0.33842462 0.44906363 -0.43611467 -1.2729427 0.32476038
-0.15713231 0.12653357 -0.5966446 -1.1791011 0.12180486 0.6220857 -0.34940478 0.24831927
-1.1116571 -0.41099796 -0.8091897 0.543483 0.44161195 -0.53377753 -0.31534144 0.39518732
0.19958794 -0.054921474 -1.1016853 -0.17907484 -0.518082 0.84718394 -0.22399832 0.68229884
0.8418426 0.019636167 0.51652944 0.36693594 0.5869276 0.7944354 0.75294 -0.09621105
-0.034625757 0.8385397 0.5076942 0.089633815 -0.13201298 0.60811555 0.08947479 0.7548507
0.6709058 -0.08394646 0.73708624 0.05391294 0.15003379 -0.9641328 -0.7205649 -0.16621974
0.5956485 0.43026283 0.4161271 -0.33548385 -0.28662542 -0.0452265 0.9500844 -0.00019787365
0.47341233 -0.8101166 0.37585923 0.30456194 -0.23276184 -0.32949108 -0.04241605 0.06405996
-0.087599576 -0.68590933 -0.91938436 -0.37929937 0.31323206 0.16410404 -0.8051177 0.29156783
0.3540434 0.10961481 0.80864227 -0.23315063 0.9733394 -0.5790622 0.6618597 0.7651041
-0.40148965 0.37508208 -0.80433995 0.7667114 0.08587775 -1.3998277 0.13829674 0.0049319975
-0.091854304 -0.03106001 -0.3597955 0.28956816 0.4023191 -0.2009992 -0.23539197 0.07713551
-0.24598879 0.11798558 0.73903155 -0.43951145 -0.20679373 0.097158484 0.18205197 0.35250407
0.12869574 0.7914081 0.05959161 0.87244856 -0.8511093 0.14930938 0.02008838 -0.27682975
-0.64633477 0.0362108 0.3440853 0.8825365 0.21184368 0.18546729 -0.23819892 0.8232169
0.4871919 1.047011 -0.052330006 1.0946182 0.07080011 0.94747835 -0.4954578 -0.1515054
0.16946156 0.14534731 0.18291539 0.42666817 -0.6381215 -0.065152794 0.03806799 0.117962435
-0.7396782 -0.59363836 -1.2124279 -0.43993878 -0.30959034 -0.5698291 -0.37845814 0.20551576
0.24591242 0.53989446 -0.14878435 -0.75847316 0.3724209 0.17946772 0.14403898 0.6625254
0.28893626 0.13096553 -0.7468187 -0.5345656 -0.036272217 -0.33440658 -0.87283343 -0.8093053
-0.77789813 0.20150389 -0.18863206 -0.08172611 0.36815205 0.2145073 0.08848536 -0.7721373
-0.10492258 0.5434339 -0.11807222 0.34925017 0.88758546 0.41374335 -0.4839728 -0.42567292
-0.7653856 0.48689902 0.013000365 -0.89544237 -0.5381485 -0.7514069 -0.0069212755 -1.193723
00000000: 39b7 2ebe 3c91 a6bf cc0e 10bf b1ae b73e
00000010: 40a8 59bf 763b 90bc 13ff 23bf fb06 633e
00000020: 0e25 ab3e 7cb1 2abe b437 9e3e fe45 ad3e
00000030: abeb e53e 6c4a dfbe c9ef a2bf fe46 a63e
00000040: 4be7 20be 0492 013e b3bd 18bf c9ec 96bf
00000050: d474 f93d 0241 1f3f 2fe5 b2be 6847 7e3e
00000060: c84a 8ebf 536e d2be 0e27 4fbf b421 0b3f
00000070: f61a e23e a5a5 08bf 6f74 a1be fe55 ca3e
00000080: c860 4c3e 57f5 60bd 0604 8dbf 655f 37be
00000090: 06a1 04bf 0ce1 583f d15f 65be 23ab 2e3f
000000a0: ff82 573f 07dc a03c 463b 043f 07df bb3e
000000b0: e340 163f 1e60 4b3f adc0 403f 4d0a c5bd
000000c0: bdd3 0dbd 8aaa 563f 3ff8 013f ef91 b73d
000000d0: 692e 07be 76ad 1b3f 8f3e b73d e53d 413f
000000e0: 7cc0 2b3f 1fec abbd afb1 3c3f d1d3 5c3d
000000f0: 75a2 193e 68d1 76bf f176 38bf 8235 2abe
00000100: 6c7c 183f 694b dc3e 9c0e d53e 8ac4 abbe
00000110: 91c0 92be 6c3f 39bd bb38 733f 4e7c 4fb9
00000120: 1a63 f23e cd63 4fbf 9f70 c03e 8bef 9b3e
00000130: 1f59 6ebe 0eb3 a8be 74bc 2dbd de31 833d
00000140: 6867 b3bd c197 2fbf c65c 6bbf 8733 c2be
00000150: f45f a03e e40a 283e 321c 4ebf 6148 953e
00000160: 2d45 b53e bb7d e03d 2e03 4f3f 0abf 6ebe
00000170: c52c 793f 6c3d 14bf a36f 293f dddd 433f
00000180: 0d90 cdbe c20a c03e 39e9 4dbf 3347 443f
00000190: ace0 af3d 8e2d b3bf a99d 0d3e 989c a13b
000001a0: 1c1e bcbd 9071 febc 1e37 b8be 4742 943e
000001b0: c5fc cd3e bcd2 4dbe 980a 71be 39f9 9d3d
000001c0: 7ce4 7bbe 6ca2 f13d 2c31 3d3f a507 e1be
000001d0: bcc1 53be 07fb c63d d56b 3a3e 6a7b b43e
000001e0: d1c8 033e b999 4a3f 5516 743d ca58 5f3f
000001f0: 4de2 59bf 8fe4 183e 6390 a43c a1bc 8dbe
00000200: 3276 25bf c751 143d f32b b03e e9ed 613f
00000210: 8ded 583e 23eb 3d3e 6bea 73be 58be 523f
00000220: 3771 f93e 7504 863f fd57 56bd 731c 8c3f
00000230: a6ff 903d f18d 723f a5ac fdbe 3b24 1bbe
00000240: 5587 2d3e edd5 143e 2c4e 3b3e 4074 da3e
00000250: ee5b 23bf d46e 85bd 2eed 1b3d 4a96 f13d
00000260: 8d5b 3dbf aff8 17bf d630 9bbf a83f e1be
00000270: a082 9ebe 52e0 11bf 44c5 c1be b972 523e
00000280: 77d0 7b3e 8636 0a3f ed5a 18be 4c2b 42bf
00000290: f4ad be3e 63c6 373e f47e 133e 449b 293f
000002a0: 74ef 933e d41b 063e 832f 3fbf 4bd9 08bf
000002b0: 2d92 14bd 5737 abbe 0372 5fbf a22e 4fbf
000002c0: 5524 47bf 0957 4e3e c328 41be 0560 a7bd
000002d0: 6d7e bc3e cda7 5b3e d037 b53d caaa 45bf
000002e0: a6e1 d6bd 7c1e 0b3f d9cf f1bd ebd0 b23e
000002f0: cd38 633f 2bd6 d33e 48cb f7be cdf1 d9be
00000300: 50f0 43bf d44a f93e 7cff 543c b63b 65bf
00000310: 1ac4 09bf 345c 40bf decb e2bb eacb 98bf

sequential/dense_2/MatMul f4 [3, 10]
0.6446651 0.95600563 -1.6038967 -0.28113636 1.0712514 0.91038245 0.6359615 0.45256907
0.2781233 -0.45050186 -0.86073273 0.11698805 0.86943996 1.1887379 0.73633015 -1.3205082
1.121705 -0.63705516 -0.47389883 -0.5292448 -1.4751288 -0.50998574 0.21651311 -0.037346225
-0.5709221 0.12047449 -0.92131215 0.9022646 0.87378293 1.0756075
00000000: c608 253f c9bc 743f 7d4c cdbf 1bf1 8fbe
00000010: c41e 893f d30e 693f 5fce 223f 22b7 e73e
00000020: 2d66 8e3e 2ea8 e6be fb58 5cbf 6e97 ef3d
00000030: 9e93 5e3f 9028 983f 2280 3c3f 6a06 a9bf
00000040: 0894 8f3f 0c16 23bf dea2 f2be 967c 07bf
00000050: 05d1 bcbf 6d8e 02bf 9db5 5d3e 5bf8 18bd
00000060: f327 12bf 54bb f63d 1ddb 6bbf d0fa 663f
00000070: 3db0 5f3f 82ad 893f
