backend/model/point_recognizer/point_recognizer.tflite (tflite, 6968 bytes, 6 tensors)

sequential/dense/BiasAdd/ReadVariableOp f4 [20]
00000000: 5f7a 0abf 183b 65bf 6c99 3abf df9d 94bf
00000010: 9af4 34bf 59b0 42bf eade 1e3f fe0c ddbd
00000020: e8df 01be 9f15 9ebf 1f31 9ebf f613 9dbf
00000030: d1c2 64bc a879 c93f 496d 0abf 50d5 cdbf
00000040: d34f 0ebe 03a0 3abf 056e e33e 8994 d2be
-0.54092973 -0.89543295 -0.72890353 -1.1610678 -0.7068573 -0.76050335 0.6205889 -0.10793494
-0.1268307 -1.2350348 -1.235874 -1.2271717 -0.0139624635 1.5740252 -0.54073006 -1.6080723
-0.13897638 -0.7290041 0.44419876 -0.41128948

sequential/dense_2/BiasAdd/ReadVariableOp f4 [10]
00000000: 4731 b0bf b764 90bf acda ff3e 09aa 90be
00000010: 6115 f8be 90ee 34be bd8e 0e3f b682 a6be
00000020: 0e13 0640 25cb 84be
-1.3765038 -1.1280736 0.4997152 -0.28254727 -0.4845381 -0.1766913 0.5568655 -0.325216
2.094913 -0.25936237

sequential/dense_1/BiasAdd/ReadVariableOp f4 [10]
00000000: cbc0 c43f cb73 7cbe 1fe4 233e 00bf 873f
00000010: 9265 81bf 967b a23e e0cf 2abf b96a 0a40
00000020: 42fc aa3f 0c39 5f3e
1.5371336 -0.24653547 0.1600499 1.0605164 -1.0109122 0.31734914 -0.6672344 2.1627638
1.3358233 0.21799105

sequential/dense/MatMul f4 [20, 44]
00000000: b021 86bb 1fa7 d3be f0e7 2bbe 5c5d 173e
00000010: 66d0 ad3f f98e 53bf 30fc 6a3f 818b 8bbe
00000020: 4d9d 233f db3b 7fbe 43ca 313f d63f 8cbe
00000030: 4329 88bf 8ef2 a83d 9ca9 7bbf 6d27 173e
00000040: b58e 5ebf dcbc 143e 8175 1fbf 954d 3a3e
00000050: 76cb bcbf adc2 a73e 531d 40bf b731 f23d
00000060: a7a2 e4be b362 ae3d eda9 99be 2436 ad3c
00000070: 10b0 9abf 1c06 0d3f 0409 0cbf 2cb7 423e
00000080: 67d6 27bf d5b5 f7bd 9165 17bf 9e3c 5dbe
00000090: 5bac 45bf 9294 723f 62bc c6be b848 cd3e
000000a0: c0b0 f6be e3fc 153e b4b6 bcbe 924d 6a3d
000000b0: d6f3 8abe 8823 98be 9864 45be b831 14be
000000c0: c3b6 48bf ae43 21bf af95 40bf 2f8b 73be
000000d0: 155b 13bf d957 77be f27d 02bf 8168 84be
000000e0: 4d93 623f 1041 44be 3c7e 393f 7851 02be
000000f0: 19b8 1b3f 3503 33bd a0fc 293f 4828 30bd
00000100: b7a4 873f 0948 76bd 1301 363f 9fba ac3c
00000110: 687a ff3e f5a0 7a3c 17c5 f63e 8509 423d
00000120: 0d18 473f f3b6 623d 4d70 cb3e cf37 163e
00000130: 1f4a e43e 5578 b73d 896c f13e d737 7c3d
00000140: db49 aa3e 9f89 4c3e 7f9c 923e 1331 393e
00000150: d54d 813e 985f 103e c02c 903e 888a 843d
00000160: 270e ba3d 3cca 46be b0da 1abd c8ed 203e
00000170: e96e 9ebf 812e d23e 3e10 fbbf 7a83 153e
00000180: ab95 cbbf 6318 a13d 9fd4 aabf c13f e53d
00000190: edbd efbf 98a9 9a3d fb4b 46bf 696a 903d
000001a0: 2562 06bf f32d 893d 8a3a afbe 952f 603d
000001b0: d63d 11bf 7ed9 013c 04bd 5cbe c2ee 9c3d
000001c0: 6b3d debd a793 c53d a7ba 12bd 6eb0 383d
000001d0: ba93 9b3c b2b6 bfbc d531 bbbc 2e72 2a3d
000001e0: 5aa0 b0bd 5d3a 023c ef2a 0dbe e6c2 4f3d
000001f0: 7c12 743e 3e04 81bd 38bd 6f3d 71cd 223d
00000200: 140e a23d 41a9 0b3c 9212 c63c 0a72 aabc
00000210: ff74 d8bd fa11 1ebf 0d4a 5ebe 7ace 00be
00000220: 0539 55be c8cc b83d 2cc9 f2bd af0e 0ebc
00000230: 161d 77bd 02c1 02be 8bfc 543d c464 a1be
00000240: 4d00 773c 37ae 54bd 1879 833c cf6f cd3c
00000250: a332 bf3c c6ab 883a db76 943d cc16 1e3c
00000260: e377 15bd c4e8 6bbe 8c39 4fbb e61b 043d
00000270: 67ef b5bc c678 84bc 38bf 10bc 91da 51bd
00000280: d6bf 063b 9157 a1be ee34 95bd 8034 babe
00000290: 7f68 e5bc 6f76 2ebf 3593 48bd b062 25bf
000002a0: 5e19 28bd 6ae1 35bf 334f 05bc d61d f7be
000002b0: 511e cf3c bf6b 44bf d2a7 1c3d 73a0 4cbf
000002c0: e654 8fbd 1e9b 62be 9d8b 17be 8b05 95be
000002d0: 86d0 5c3f 3327 9abf 0b38 1d3f 68f3 0dbf
000002e0: 1ff9 203f 5d77 a3be e413 b03f d349 2fbe
000002f0: 6a7c e1bd b3c9 12be 6cd0 55be b5d2 8cbd
00000300: e074 85be abc0 9abc 06e7 6bbe b28f ab3c
00000310: 9b6c fcbd 9038 193e 303f 36be 882d 05bd
00000320: 3342 bdbd e701 013c 0bf8 ebbd 1891 743d
00000330: 073e 243d a912 a83e ce9f 84bd 3054 8c3c
00000340: edba d1bd 3df2 193d d824 cabd 1cea 003d
00000350: 54fe b23d 0298 183f 5751 76bd fdd7 f63d
00000360: 6baf b1bd fec0 913d 7248 d0bd eff2 acbb
00000370: 9707 05be 787a febe ac28 3b3e 5046 82be
00000380: 0976 0640 9fec b03e 7eb5 963f 5399 de3c
00000390: 0dac 4f3f 3484 a33d b423 2f3f 156f f73d
000003a0: fe12 00bf 38de cbbe f123 ad3e ea29 f9bd
000003b0: 5200 053f cd7a 81bd de72 063f 6940 91bc
000003c0: a972 5dbf 422a a9be d08d 623e 673b c5bc
000003d0: 40ae 9c3e 62ed 7f3d f5cc a53e 3448 983d
000003e0: 9fb2 69bf fb21 0dbe 6c15 8b3c bc70 9e3d
000003f0: 3e50 613e e04f e13d bbbf 9d3e 7ee2 d03d
-0.0040933713 -0.4133844 -0.16787696 0.14781708 1.3579223 -0.82640034 0.9179106 -0.2725487
0.63911897 -0.24925177 0.6944925 -0.27392453 -1.0637592 0.08249389 -0.9830568 0.14761133
-0.86936504 0.14525169 -0.6228867 0.18193658 -1.4749591 0.32765713 -0.75044745 0.118258886
-0.44655344 0.08514919 -0.30012456 0.02114398 -1.208498 0.5508745 -0.54701257 0.19015187
-0.65561527 -0.120952286 -0.59139353 -0.21605155 -0.7721612 0.9475795 -0.388156 0.40094543
-0.48181725 0.1464725 -0.3685814 0.057202883 -0.27139157 -0.29714608 -0.19276655 -0.14472091
-0.7840387 -0.62993896 -0.752284 -0.23783563 -0.57560855 -0.24154605 -0.5097343 -0.2586098
0.88506013 -0.19165444 0.72458243 -0.1272639 0.60827786 -0.04370423 0.664011 -0.043007165
1.0597142 -0.06012729 0.7109539 0.021085082 0.49898076 0.015297164 0.48197243 0.04737236
0.77771074 0.055350255 0.39734116 0.14669727 0.445878 0.089584984 0.47153118 0.06157669
0.33259472 0.19974373 0.28635022 0.18085127 0.25254694 0.14098966 0.28159142 0.06471735
0.090847306 -0.19413084 -0.037806213 0.15715706 -1.2377597 0.41051105 -1.9614332 0.14600936
-1.590505 0.078659795 -1.3346137 0.11193801 -1.8729836 0.07551879 -0.77459687 0.07051546
-0.52493507 0.06698217 -0.3422435 0.054732878 -0.5673498 0.007925389 -0.21556479 0.07662727
-0.10851558 0.09647303 -0.035822537 0.04509013 0.01899134 -0.023402546 -0.02285091 0.041612796
-0.08624335 0.007948485 -0.13785909 0.05072298 0.23835176 -0.06299637 0.058530062 0.039746705
0.079128414 0.00852424 0.024178777 -0.020806331 -0.1056919 -0.6174618 -0.21707936 -0.12578765
-0.20822532 0.09023434 -0.11854777 -0.008670493 -0.060330473 -0.12768939 0.051998656 -0.3152219
0.015075755 -0.051923957 0.016048953 0.025077729 0.023339575 0.0010427169 0.072492324 0.00964899
-0.036491286 -0.23038012 -0.0031619994 0.03225317 -0.022208882 -0.01617087 -0.008834653 -0.05123383
0.002056112 -0.3151212 -0.07285486 -0.3636818 -0.02800393 -0.68149465 -0.048968513 -0.6460371
-0.041039817 -0.7104708 -0.008136558 -0.4826495 0.02528301 -0.7672691 0.038245983 -0.79932326
-0.06998615 -0.22129485 -0.14799352 -0.2910579 0.8625568 -1.2043213 0.6141364 -0.55449533
0.6288013 -0.31927004 1.375607 -0.17118005 -0.11010058 -0.14334755 -0.20880288 -0.06876127
-0.2606573 -0.0188907 -0.23037347 0.020942543 -0.12325402 0.14962983 -0.17797542 -0.032514125
-0.09241142 0.007873989 -0.1152192 0.059708685 0.040098216 0.32826737 -0.06475793 0.017129987
-0.102407314 0.037584532 -0.09870309 0.031473264 0.087399155 0.59606946 -0.060136165 0.12052915
-0.086760364 0.071168885 -0.10170068 -0.0052779834 -0.12991177 -0.4970281 0.18277234 -0.2544427
2.1009543 0.34555528 1.1774137 0.02717272 0.81121904 0.079842 0.68413854 0.12081734
-0.5002898 -0.39817977 0.33816484 -0.121661976 0.51953614 -0.063222505 0.52519023 -0.017730908
-0.8650308 -0.33040053 0.2212441 -0.024076177 0.30601692 0.062482245 0.32382932 0.07435647
-0.9128818 -0.13782494 0.016977988 0.07736346 0.22003266 0.11001563 0.3081034 0.1019945

sequential/dense_1/MatMul f4 [10, 20]
00000000: a1a1 fabd 9c77 20be 9bd0 ce3e 67dc 803d
00000010: a3e9 64bf 1954 d1be bd1d 503f 5eb4 f33c
00000020: 36af d2bd d422 e13a 9f9b 813e 44d5 efbb
00000030: 672d 973e 524f a23e 9718 c83f 0e3f ea3e
00000040: 8ba9 7abe d82e 4f3e be1b 293f 9a68 273f
00000050: 1fea 143e 1354 69bd 4bba fb3f 34a2 843e
00000060: 629e bdbd 78f3 2b40 9640 183f 8921 ffbe
00000070: e8aa 103e 46e9 c13e 44e6 b33e fb37 e63e
00000080: 2f6a a13d 2872 0b3f da34 343e 20fa 373e
00000090: f1d1 283e ad65 1c40 504c 3c3f a2e9 d93f
000000a0: 2ba5 af3f b02f babf 1b41 5e3e a4e3 023d
000000b0: f6aa 1d3f 343b 09bf f87e acbd 2261 7a3f
000000c0: 7f02 843f 3568 d23c 3d7d 163d 1c7b 15be
000000d0: e2c8 473f 3741 6f3f 1a77 c83b 8f49 3e3f
000000e0: fa6a bc3f d5d3 e93e 2d04 df3e 6122 9cbd
000000f0: a042 673f dd2e 443f 9368 98be 2262 973e
00000100: b9a6 0cbf a3b7 0bbe 3ea2 b4bf e9bc 96be
00000110: a92c 763f 0d69 f43e 03a3 523e 36b4 543f
00000120: a458 063f 931f aabd e2e4 9c3e 08a7 593f
00000130: 2856 b53e 4fc9 c43e 60a1 9bbf 0a7d b83e
00000140: 9a0b ed3e 6e69 823e 5de1 57be e8dc 4fbf
00000150: 7c0c 86be 6e24 cb3e f68a 1d3f 5f3f b43e
00000160: 504c c63e e7cb 95bf f612 7fbe 58a6 6bbf
00000170: cf54 a7bc 1094 51bd ff0b 2d3f 6fc9 0d3f
00000180: 71b2 80bf ed80 9e3e 93b1 113f a515 6b3d
00000190: 693b 62be 062f e93e b067 f2be 5690 1d3d
000001a0: 46b2 b73f b1bf dc3e 369f 3c3f dcab e83f
000001b0: e631 713e f13b 3bbd 56d7 16bc 3bc4 c9bd
000001c0: 6142 013e 8c36 4d3f 337b 493f 0a05 083f
000001d0: 8be1 22be 7863 ab3f 3088 ad3f f7e7 823e
000001e0: bae1 acbf 8ad7 103f bde6 573e bc4c 2e3d
000001f0: f5e1 833f 5e9a b3be dfc9 ddbd 9d52 283f
00000200: 8cd1 8abd 729f b03d d53b 2d3f 9fee 2d3f
00000210: 01a0 2f3f 6347 55be c36c 413e 7bbe 083e
00000220: a278 b13d 6635 b23e cea1 28bf 136b e93c
00000230: 8936 323d d7f3 d0bd 9700 f43c f7a1 703f
00000240: c8f5 00be e1a4 4cbd e8d2 133e 33d5 4e3e
00000250: 95a8 2f3e 02b6 913f 94cb 853f f82e 5f3f
00000260: 24a8 aa3e b592 37c0 5694 2cbe cf29 e53e
00000270: 2395 873d af69 613e cf54 e83c 31c1 9f3d
00000280: 95aa bcbf 50a9 e0bf ea1d 0a3e 343e 643e
00000290: a053 513f e89b 9f3d a63a 10be 4f30 503e
000002a0: cbe9 f8bf de55 d13e fa0a 3b3e 1541 ef3e
000002b0: 5c19 2ec0 009a ac3a 5726 3f3f 51e6 503e
000002c0: cd48 103d 41aa fd3d 517b 70bc fd85 373e
000002d0: 6013 f63e 9c2a d9be 47e6 103f ba7a 17bf
000002e0: 8cbe e83e f6b1 553e 1f45 1f3f efdd 11be
000002f0: 3def 033f b264 2abf fd7c 92bf b04e 8cbf
00000300: b0c8 ef3e 5297 353f 9565 93bf 8902 bd3b
00000310: 5403 783f 49a3 ef3e 8404 b83e c08d 313f
-0.122378595 -0.15670627 0.40393528 0.062920384 -0.89419 -0.40884474 0.81295377 0.029749092
-0.10287325 0.0017176517 0.25314042 -0.0073191244 0.29526827 0.31701142 1.5632504 0.45751232
-0.24478738 0.20232713 0.66057956 0.65393984 0.14542435 -0.056964945 1.9666227 0.25905
-0.09258725 2.6867352 0.5947355 -0.49830273 0.14127696 0.37873286 0.35136616 0.44964585
0.07881581 0.54471064 0.17598286 0.17966509 0.16486336 2.4437058 0.73553944 1.7024424
1.372228 -1.4545803 0.21704523 0.031955376 0.6158899 -0.5360596 -0.08422655 0.9780446
1.0313262 0.025684455 0.03674053 -0.14597744 0.780409 0.93458885 0.0061177136 0.7433099
1.4720147 0.45669428 0.43557873 -0.07623745 0.90336037 0.7663401 -0.29767284 0.29567057
-0.549419 -0.1364427 -1.4112012 -0.29441002 0.96161896 0.47736397 0.20569997 0.8308748
0.52479005 -0.083068036 0.30643374 0.85020494 0.35417295 0.38434836 -1.2158623 0.36032897
0.46297914 0.2547106 -0.21082063 -0.8119645 -0.261814 0.3967623 0.6154016 0.35204598
0.38730097 -1.1702851 -0.24909577 -0.92050695 -0.020426182 -0.051166594 0.6759643 0.5538549
-1.0054456 0.30957738 0.5691158 0.05739369 -0.22092976 0.4554369 -0.47344732 0.038467728
1.435128 0.43115 0.73680437 1.8177447 0.23554191 -0.04571146 -0.0092066135 -0.09851881
0.12622978 0.80161357 0.7870361 0.5313269 -0.1590635 1.338973 1.3557186 0.255676
-1.3506386 0.56578887 0.21084113 0.04255365 1.0303332 -0.3507871 -0.108295195 0.6575106
-0.06778249 0.08624162 0.6766942 0.6794223 0.6860352 -0.20828013 0.18889146 0.13353913
0.08665587 0.34806365 -0.65871894 0.02849344 0.04350904 -0.10202759 0.029785438 0.9399714
-0.12593758 -0.04996193 0.14435923 0.20198517 0.17154153 1.1383669 1.0452752 0.87181044
0.33331406 -2.8683293 -0.1685346 0.4475846 0.066202424 0.22012971 0.028360752 0.0780052
-1.4739558 -1.755167 0.13487974 0.22289354 0.81768227 0.07793409 -0.14084873 0.20330928
-1.9446348 0.40885824 0.18265906 0.4672934 -2.7202978 0.0013168454 0.74667877 0.20400359
0.03522568 0.12385989 -0.014677838 0.17922206 0.48061657 -0.4241532 0.56601375 -0.5917164
0.45457876 0.20868668 0.62214845 -0.14244817 0.51536924 -0.665599 -1.1444393 -1.0961514
0.468328 0.7093402 -1.1515375 0.0057681245 0.9688008 0.46804264 0.35940945 0.6935692

sequential/dense_2/MatMul f4 [10, 10]
00000000: 9fe5 293f 52da b83e 9e6d 4bbf 8044 d7bf
00000010: a948 bbbf 7112 0c3f 890a 58be ba19 ec3e
00000020: 125a e13e 3d5e c0be b3d4 acbf d7ac a6bf
00000030: 2392 143f 309e bb3e acc9 ebbe d2bf d4be
00000040: df51 283f 8cfb 163f fdfb 3b3e ec83 4ebf
00000050: 0280 303e 3135 803e 276d 89be 7ef8 fe3e
00000060: 466a dfbe 8196 9bbf 5102 1ebe 91d4 913e
00000070: 8217 02bf 49b5 6ebe f9c2 f9be 8fff 043f
00000080: 4141 9f3d 4a63 7c3e adba cebe 3146 bebe
00000090: b253 5f3c e90c 633e 8905 b0be 02ac c1be
000000a0: 8a64 403f d4b9 aa3e f1fe 383e 4f35 44bf
000000b0: eb5e 6c3f 8599 f43d 71b2 733e f738 acbf
000000c0: f0f1 e0be 9d52 203e af2c 5d3d be07 f13d
000000d0: 956d 103e 9602 423d 90a1 3f3f bc1a abbe
000000e0: ce38 803f 5ec1 c5bf f34b 363f 9e32 553f
000000f0: 98c0 b43e ba75 98bf 3cc9 20c0 453a 37be
00000100: cb8a dcbd c375 1ac0 61b3 66bd 0973 2f3f
00000110: 3b04 fd3e 20c4 9f3e f33f 2f3f 4d77 b03d
00000120: 754a 22c0 290e 53be fb3b 2cbf 1d37 5ebf
00000130: 6a93 81be 2a16 123e f061 643f f2b4 47bf
00000140: 2787 863f e663 84c0 422e 77be 61ad 433e
00000150: 4cd5 b6bf d8ce bd3d f870 06c0 276c 1f3f
00000160: 7be0 d7bf 5477 aebe ea9e 8b3d 6b96 473e
00000170: 988b 133e dbdb 86bf 2fd6 23be dba3 bd3e
00000180: 0b10 8dbe 2bda 88be 37e0 84bf 8376 7e3f
0.66366 0.36104065 -0.7946414 -1.681778 -1.4631549 0.5471564 -0.21097769 0.46113378
0.4401403 -0.37571898 -1.3502411 -1.3021497 0.58035487 0.36644125 -0.460523 -0.41552597
0.65749925 0.5897758 0.18357845 -0.80670047 0.17236331 0.25040582 -0.2684109 0.4979896
-0.43635768 -1.2155305 -0.15430571 0.28482488 -0.5081712 -0.23311342 -0.48781565 0.5195245
0.07776118 0.24647251 -0.40376797 -0.37162927 0.013630794 0.22172894 -0.34379223 -0.37826544
0.7515341 0.333449 0.18066002 -0.7664384 0.92332333 0.11943344 0.23798539 -1.3454884
-0.43934584 0.15656514 0.05399769 0.11769055 0.14104302 0.047365747 0.748559 -0.33418834
1.0017335 -1.5449636 0.7120964 0.8328036 0.35303187 -1.1910927 -2.5122824 -0.17893322
-0.1076866 -2.4134376 -0.056323413 0.68534905 0.4941729 0.3120432 0.68456954 0.08616505
-2.5357945 -0.2061087 -0.6727902 -0.86802846 -0.2530778 0.14266267 0.8921194 -0.78010476
1.0509995 -4.1371946 -0.2413874 0.19109108 -1.4283843 0.09267968 -2.100645 0.622744
-1.6865381 -0.34075415 0.0681742 0.19490974 0.1440872 -1.0535845 -0.15999673 0.37039074
-0.27551302 -0.2672895 -1.0380925 0.99399585
